models/hey_donny.tflite (tflite, 63544 bytes, 18 tensors)

tfl.pseudo_qconst1 i1 [1, 2368] scale=0.006647688 zero_point=0
00000000: ed0a e0f5 0f00 f8f2 d715 f40f f9fd fce1
00000010: fdf3 fb07 1ae5 f5f7 f9ef d4f4 e3d7 09c8
00000020: f50f e1f5 04e9 32f5 1703 fe07 fadc ffdf
00000030: d7e2 2431 fbec f003 0e12 f308 081e 02ff
00000040: fafc e8fc 1104 f7ed e70c fa0d fc07 04f5
00000050: 0003 fe04 16f2 ef07 f4e8 ecf6 e7f5 06d3
00000060: fd15 e7f3 fdfc 22ff 0805 070c f8fe f8f1
00000070: e7f3 1119 fc03 f409 00f9 fef9 0318 0002
00000080: 00f3 f9f9 010e fff1 f4fe f0fb 0a08 0dfb
00000090: ed0a 0606 07f7 f504 f4ed f7ee f302 07da
000000a0: 0b1c edec 0809 1101 0103 0706 fb01 f4f4
000000b0: fcf2 0b16 fafc fb08 06f0 fdf9 0717 fdf8
000000c0: 04f0 05fa fc0e fdf5 f5f4 06fa fefc fcec
000000d0: ec07 0507 f8e7 fd08 fcfc f2ed ec05 f6df
000000e0: 091c f7f6 1307 1004 0303 0609 02f7 eff3
000000f0: 01f6 0a11 fe00 0305 fdf4 07f5 fefc ef06
-0.12630607 0.06647688 -0.21272601 -0.073124565 0.099715315 0.0 -0.053181503 -0.09306763
-0.2725552 0.13960144 -0.07977226 0.099715315 -0.046533816 -0.019943064 -0.026590751 -0.20607832
-0.019943064 -0.08641994 -0.03323844 0.046533816 0.17283988 -0.17948757 -0.073124565 -0.05982919
-0.046533816 -0.1130107 -0.29249826 -0.07977226 -0.19278295 -0.2725552 0.05982919 -0.37227052
-0.073124565 0.099715315 -0.20607832 -0.073124565 0.026590751 -0.15289682 0.3323844 -0.073124565
0.15289682 0.019943064 -0.013295376 0.046533816 -0.03988613 -0.23931676 -0.006647688 -0.2193737
-0.2725552 -0.19943063 0.23931676 0.3257367 -0.03323844 -0.13295376 -0.106363006 0.019943064
0.09306763 0.11965838 -0.08641994 0.053181503 0.053181503 0.19943063 0.013295376 -0.006647688
-0.03988613 -0.026590751 -0.15954451 -0.026590751 0.1130107 0.026590751 -0.05982919 -0.12630607
-0.1661922 0.07977226 -0.03988613 0.08641994 -0.026590751 0.046533816 0.026590751 -0.073124565
0.0 0.019943064 -0.013295376 0.026590751 0.14624913 -0.09306763 -0.1130107 0.046533816
-0.07977226 -0.15954451 -0.13295376 -0.06647688 -0.1661922 -0.073124565 0.03988613 -0.29914597
-0.019943064 0.13960144 -0.1661922 -0.08641994 -0.019943064 -0.026590751 0.2260214 -0.006647688
0.053181503 0.03323844 0.046533816 0.07977226 -0.053181503 -0.013295376 -0.053181503 -0.099715315
-0.1661922 -0.08641994 0.1130107 0.1661922 -0.026590751 0.019943064 -0.07977226 0.05982919
0.0 -0.046533816 -0.013295376 -0.046533816 0.019943064 0.15954451 0.0 0.013295376
0.0 -0.08641994 -0.046533816 -0.046533816 0.006647688 0.09306763 -0.006647688 -0.099715315
-0.07977226 -0.013295376 -0.106363006 -0.03323844 0.06647688 0.053181503 0.08641994 -0.03323844
-0.12630607 0.06647688 0.03988613 0.03988613 0.046533816 -0.05982919 -0.073124565 0.026590751
-0.07977226 -0.12630607 -0.05982919 -0.11965838 -0.08641994 0.013295376 0.046533816 -0.25261214
0.073124565 0.18613526 -0.12630607 -0.13295376 0.053181503 0.05982919 0.1130107 0.006647688
0.006647688 0.019943064 0.046533816 0.03988613 -0.03323844 0.006647688 -0.07977226 -0.07977226
-0.026590751 -0.09306763 0.073124565 0.14624913 -0.03988613 -0.026590751 -0.03323844 0.053181503
0.03988613 -0.106363006 -0.019943064 -0.046533816 0.046533816 0.15289682 -0.019943064 -0.053181503
0.026590751 -0.106363006 0.03323844 -0.03988613 -0.026590751 0.09306763 -0.019943064 -0.073124565
-0.073124565 -0.07977226 0.03988613 -0.03988613 -0.013295376 -0.026590751 -0.026590751 -0.13295376
-0.13295376 0.046533816 0.03323844 0.046533816 -0.053181503 -0.1661922 -0.019943064 0.053181503
-0.026590751 -0.026590751 -0.09306763 -0.12630607 -0.13295376 0.03323844 -0.06647688 -0.2193737
0.05982919 0.18613526 -0.05982919 -0.06647688 0.12630607 0.046533816 0.106363006 0.026590751
0.019943064 0.019943064 0.03988613 0.05982919 0.013295376 -0.05982919 -0.1130107 -0.08641994
0.006647688 -0.06647688 0.06647688 0.1130107 -0.013295376 0.0 0.019943064 0.03323844
-0.019943064 -0.07977226 0.046533816 -0.073124565 -0.013295376 -0.026590751 -0.1130107 0.03988613

tfl.pseudo_qconst3 i1 [64, 1, 1, 64]
00000000: 27ed 9fa2 c8cd 7f21 0be9 d8c4 d418 3f65
00000010: 6dde 04f4 101f 00d1 bee6 1015 e8e2 1ce6
00000020: 0bee f26b f03b e0d3 f8f5 0404 942f 28e3
00000030: 07f7 0414 fef2 04d5 14d1 3b49 0a30 0cb1
00000040: 20e2 e6e3 25e7 c9af 24bb 09f9 fc29 dc90
00000050: b97f 0509 ebb0 faf7 ef33 d4c5 e5d7 000b
00000060: 171d 4c1e 04ec 51fa 5a1c 03ee 18f6 13ed
00000070: f8ec f70e cf54 a93b 8219 effa f632 58f4
00000080: bc2b 3b1b 5b7f fbcf db06 62cc e6f0 041e
00000090: 0f50 c61a feb0 16dc 32b8 e1cc 0e3c 01f6
000000a0: e7fe 2a20 d0fc c3fc 320a c1e5 0f47 cc15
000000b0: 1210 e23d 0620 18a0 ff18 aa34 12b0 452a
000000c0: b175 2909 2205 ea06 d03b edf9 a404 d60b
000000d0: 0a16 e781 0fe4 18bf fedc cccc e90a 412c
000000e0: ed10 2a20 d3fd fa26 d934 fa30 c8e5 f4f7
000000f0: d426 f91d d33d 1da0 0011 66b9 4f20 e51c
39 -19 -97 -94 -56 -51 127 33
11 -23 -40 -60 -44 24 63 101
109 -34 4 -12 16 31 0 -47
-66 -26 16 21 -24 -30 28 -26
11 -18 -14 107 -16 59 -32 -45
-8 -11 4 4 -108 47 40 -29
7 -9 4 20 -2 -14 4 -43
20 -47 59 73 10 48 12 -79
32 -30 -26 -29 37 -25 -55 -81
36 -69 9 -7 -4 41 -36 -112
-71 127 5 9 -21 -80 -6 -9
-17 51 -44 -59 -27 -41 0 11
23 29 76 30 4 -20 81 -6
90 28 3 -18 24 -10 19 -19
-8 -20 -9 14 -49 84 -87 59
-126 25 -17 -6 -10 50 88 -12
-68 43 59 27 91 127 -5 -49
-37 6 98 -52 -26 -16 4 30
15 80 -58 26 -2 -80 22 -36
50 -72 -31 -52 14 60 1 -10
-25 -2 42 32 -48 -4 -61 -4
50 10 -63 -27 15 71 -52 21
18 16 -30 61 6 32 24 -96
-1 24 -86 52 18 -80 69 42
-79 117 41 9 34 5 -22 6
-48 59 -19 -7 -92 4 -42 11
10 22 -25 -127 15 -28 24 -65
-2 -36 -52 -52 -23 10 65 44
-19 16 42 32 -45 -3 -6 38
-39 52 -6 48 -56 -27 -12 -9
-44 38 -7 29 -45 61 29 -96
0 17 102 -71 79 32 -27 28

tfl.pseudo_qconst5 i1 [1, 23, 1, 64]
00000000: 7f5c c326 7f88 0e5b 7faa a6a8 8150 7f07
00000010: 32d3 a595 c437 06e8 b945 7f48 81e3 defa
00000020: 7f05 810b 7b7f de84 df11 dc81 e55e 4b40
00000030: 9229 bb7f 78df 1aff f6c3 3ad5 4f5f 20ee
00000040: 4bf1 c316 5aaa 3329 68eb bcbf 8633 6e06
00000050: 28cd a69f e34a f6e6 de56 6a5a c3b3 25ef
00000060: 5a1d 9707 5b72 e881 043e cba7 ec7f 6030
00000070: b208 ba3e 69dd 16fe e2f2 0adb 717f 64dc
00000080: 43c5 e642 3c98 4909 4f2a b2c4 af32 4bfe
00000090: 22d8 b9cf e03a e406 f235 7142 aad2 4be9
000000a0: 39eb af08 6754 0ba9 13b1 eac2 0361 3228
000000b0: bfe5 cd4b 6fef ecdd fcf6 06f1 3079 38f6
000000c0: 1695 d738 3da2 42fe 363c afd9 bcff 230c
000000d0: 1cde f2d1 d042 d906 f53e 5240 f6e4 7fef
000000e0: 3c10 c50d 753c 0bb7 05bb f3c7 e453 2f0b
000000f0: 0417 cf20 37f6 f4e0 1b05 ef0e 4965 0dd5
127 92 -61 38 127 -120 14 91
127 -86 -90 -88 -127 80 127 7
50 -45 -91 -107 -60 55 6 -24
-71 69 127 72 -127 -29 -34 -6
127 5 -127 11 123 127 -34 -124
-33 17 -36 -127 -27 94 75 64
-110 41 -69 127 120 -33 26 -1
-10 -61 58 -43 79 95 32 -18
75 -15 -61 22 90 -86 51 41
104 -21 -68 -65 -122 51 110 6
40 -51 -90 -97 -29 74 -10 -26
-34 86 106 90 -61 -77 37 -17
90 29 -105 7 91 114 -24 -127
4 62 -53 -89 -20 127 96 48
-78 8 -70 62 105 -35 22 -2
-30 -14 10 -37 113 127 100 -36
67 -59 -26 66 60 -104 73 9
79 42 -78 -60 -81 50 75 -2
34 -40 -71 -49 -32 58 -28 6
-14 53 113 66 -86 -46 75 -23
57 -21 -81 8 103 84 11 -87
19 -79 -22 -62 3 97 50 40
-65 -27 -51 75 111 -17 -20 -35
-4 -10 6 -15 48 121 56 -10
22 -107 -41 56 61 -94 66 -2
54 60 -81 -39 -68 -1 35 12
28 -34 -14 -47 -48 66 -39 6
-11 62 82 64 -10 -28 127 -17
60 16 -59 13 117 60 11 -73
5 -69 -13 -57 -28 83 47 11
4 23 -49 32 55 -10 -12 -32
27 5 -17 14 73 101 13 -43

tfl.pseudo_qconst7 i1 [64, 1, 1, 64]
00000000: 8af5 b4df 0dfa ddfe 0a27 3d16 ba40 3ee5
00000010: 31ac f993 194e 6f21 88f6 3181 24f5 3124
00000020: 2b0d 540b 492f 3803 2fcf f942 c742 fa05
00000030: 1bd4 b1df bbee 012a add3 23e2 29eb e636
00000040: a2f2 dd03 095d 063c d5f1 382a c3c6 40c5
00000050: 19f5 a6f5 ca48 0d24 0b57 14de e106 0d49
00000060: ecd1 7fc3 5b48 450d f137 f94a e520 822e
00000070: 24bc 1820 b92c d5ef b6f7 4c06 3832 ab2e
00000080: 0b3c 0f5f 42c1 0b54 e606 2642 95c6 efb7
00000090: 3c08 e4b9 ab31 6702 003d 3edd 7745 2cd9
000000a0: 13a4 c6ec c73c 2f41 4310 f203 6c45 dc6e
000000b0: 10e8 f2ff dd7f 13d9 b026 0324 0912 8cee
000000c0: 2165 cd15 2cd9 071a 2db8 f727 b0e2 cd47
000000d0: f5db 160d ad04 24f8 edfe 090c 3242 f6b4
000000e0: 14e3 bf28 d72b 35fc 297f b9fb 0f3a a9e6
000000f0: df5d e30c ce3e 27c0 fc07 623c e4fd ff09
-118 -11 -76 -33 13 -6 -35 -2
10 39 61 22 -70 64 62 -27
49 -84 -7 -109 25 78 111 33
-120 -10 49 -127 36 -11 49 36
43 13 84 11 73 47 56 3
47 -49 -7 66 -57 66 -6 5
27 -44 -79 -33 -69 -18 1 42
-83 -45 35 -30 41 -21 -26 54
-94 -14 -35 3 9 93 6 60
-43 -15 56 42 -61 -58 64 -59
25 -11 -90 -11 -54 72 13 36
11 87 20 -34 -31 6 13 73
-20 -47 127 -61 91 72 69 13
-15 55 -7 74 -27 32 -126 46
36 -68 24 32 -71 44 -43 -17
-74 -9 76 6 56 50 -85 46
11 60 15 95 66 -63 11 84
-26 6 38 66 -107 -58 -17 -73
60 8 -28 -71 -85 49 103 2
0 61 62 -35 119 69 44 -39
19 -92 -58 -20 -57 60 47 65
67 16 -14 3 108 69 -36 110
16 -24 -14 -1 -35 127 19 -39
-80 38 3 36 9 18 -116 -18
33 101 -51 21 44 -39 7 26
45 -72 -9 39 -80 -30 -51 71
-11 -37 22 13 -83 4 36 -8
-19 -2 9 12 50 66 -10 -76
20 -29 -65 40 -41 43 53 -4
41 127 -71 -5 15 58 -87 -26
-33 93 -29 12 -50 62 39 -64
-4 7 98 60 -28 -3 -1 9

tfl.pseudo_qconst9 i1 [1, 15, 1, 32]
00000000: 0681 ed03 f316 81f9 8197 4af0 e8e9 7f83
00000010: 4ce2 2a54 f387 0981 81cb e6a8 b481 947a
00000020: c7a7 4ff1 0222 bfcb b4af 1e23 ebee 72a8
00000030: 32d2 4631 00c4 20f3 96c2 8d95 81a1 9c7f
00000040: 57d7 6809 e960 caab 996e 7f42 d7f1 2381
00000050: 02d1 187f 0fbc 05bf 9eeb a29d fca6 c656
00000060: 10b5 4f34 0375 bbb1 baf1 572d 0c16 4185
00000070: fff4 cc1b 0681 f32d c71e f6b5 61e0 df3d
00000080: b7e9 5d53 3e4a fe81 27a9 250a 5df5 2caf
00000090: f9ec b9f8 10b7 0561 b738 de81 42e2 b626
000000a0: 0f3e 531e 397f dbd8 ecfa dc45 6d09 eca0
000000b0: 014c 8101 fa9c ff6b f81f bea1 5a07 e854
000000c0: 2d2f 5157 375b dbc1 d4a1 aa49 42df cece
000000d0: 1e7f c048 17ef f260 0069 b1a2 461a d831
000000e0: 130e c63c 7d32 020a a981 b17f 0acd 06bd
000000f0: 1f71 e5e2 f6bb 233f ef2c b69c 3838 3961
6 -127 -19 3 -13 22 -127 -7
-127 -105 74 -16 -24 -23 127 -125
76 -30 42 84 -13 -121 9 -127
-127 -53 -26 -88 -76 -127 -108 122
-57 -89 79 -15 2 34 -65 -53
-76 -81 30 35 -21 -18 114 -88
50 -46 70 49 0 -60 32 -13
-106 -62 -115 -107 -127 -95 -100 127
87 -41 104 9 -23 96 -54 -85
-103 110 127 66 -41 -15 35 -127
2 -47 24 127 15 -68 5 -65
-98 -21 -94 -99 -4 -90 -58 86
16 -75 79 52 3 117 -69 -79
-70 -15 87 45 12 22 65 -123
-1 -12 -52 27 6 -127 -13 45
-57 30 -10 -75 97 -32 -33 61
-73 -23 93 83 62 74 -2 -127
39 -87 37 10 93 -11 44 -81
-7 -20 -71 -8 16 -73 5 97
-73 56 -34 -127 66 -30 -74 38
15 62 83 30 57 127 -37 -40
-20 -6 -36 69 109 9 -20 -96
1 76 -127 1 -6 -100 -1 107
-8 31 -66 -95 90 7 -24 84
45 47 81 87 55 91 -37 -63
-44 -95 -86 73 66 -33 -50 -50
30 127 -64 72 23 -17 -14 96
0 105 -79 -94 70 26 -40 49
19 14 -58 60 125 50 2 10
-87 -127 -79 127 10 -51 6 -67
31 113 -27 -30 -10 -69 35 63
-17 44 -74 -100 56 56 57 97

tfl.pseudo_qconst11 i1 [1, 9, 1, 32]
00000000: 8126 81c1 ffe0 d656 1c3b dc81 e9b4 16ec
00000010: 1528 8110 7f01 35a4 176d 6d34 8133 6cfd
00000020: 9dd2 88cf d1dd d548 0736 0cab e9b5 2118
00000030: fb28 a20e 383f db9b fcbf 36cf df3c 4dfa
00000040: ecd5 a0f4 b3d8 50e3 8f8c 420a 0fbc 0db2
00000050: f907 e0f9 6756 ad8d 1079 acc2 1d75 e604
00000060: ebb3 9849 dcfb 25de 83f9 32cc 35c8 43db
00000070: 3340 0b11 5dfb a1c2 04a1 98ac 3a3c ddf3
00000080: a7d9 a046 da0d e8c8 817f 0ad8 3844 e8c7
00000090: f224 3e1b 0a18 e5ce d36a 7fd8 3638 960a
000000a0: a8e4 d6f3 deed 2fe2 07e7 0da7 1cf9 a8cb
000000b0: 3030 4207 31e1 f41d dd7f 36b0 1cb6 8126
000000c0: f0f9 fab6 b2d7 2719 4baf ded1 5952 813b
000000d0: da69 4dd9 4bc8 7744 b8b7 ef81 5dc7 c2ce
000000e0: 03c8 f684 81ad b76d e5cb 8100 7d5e 8840
000000f0: cf35 3981 3adf 7f3b ba02 bdb0 2281 a3bf
-127 38 -127 -63 -1 -32 -42 86
28 59 -36 -127 -23 -76 22 -20
21 40 -127 16 127 1 53 -92
23 109 109 52 -127 51 108 -3
-99 -46 -120 -49 -47 -35 -43 72
7 54 12 -85 -23 -75 33 24
-5 40 -94 14 56 63 -37 -101
-4 -65 54 -49 -33 60 77 -6
-20 -43 -96 -12 -77 -40 80 -29
-113 -116 66 10 15 -68 13 -78
-7 7 -32 -7 103 86 -83 -115
16 121 -84 -62 29 117 -26 4
-21 -77 -104 73 -36 -5 37 -34
-125 -7 50 -52 53 -56 67 -37
51 64 11 17 93 -5 -95 -62
4 -95 -104 -84 58 60 -35 -13
-89 -39 -96 70 -38 13 -24 -56
-127 127 10 -40 56 68 -24 -57
-14 36 62 27 10 24 -27 -50
-45 106 127 -40 54 56 -106 10
-88 -28 -42 -13 -34 -19 47 -30
7 -25 13 -89 28 -7 -88 -53
48 48 66 7 49 -31 -12 29
-35 127 54 -80 28 -74 -127 38
-16 -7 -6 -74 -78 -41 39 25
75 -81 -34 -47 89 82 -127 59
-38 105 77 -39 75 -56 119 68
-72 -73 -17 -127 93 -57 -62 -50
3 -56 -10 -124 -127 -83 -73 109
-27 -53 -127 0 125 94 -120 64
-49 53 57 -127 58 -33 127 59
-70 2 -67 -80 34 -127 -93 -65

tfl.pseudo_qconst13 i1 [64, 1, 1, 64]
00000000: d5b2 3091 061b b61f 64e9 0adf f9a2 1852
00000010: e4c3 e281 0123 2e09 2af4 29f0 c38d 62e5
00000020: fded dfc2 c087 0cd6 ebef f62b c9fb 1e0a
00000030: d80b 1af4 a5d1 e0e8 2f27 eef1 3d54 ae29
00000040: 81a1 fa17 fdee edff 4007 0f30 77f0 f03a
00000050: 3afd 17fb 4c1e f1f8 d6d3 e93b 4d1a fe1b
00000060: e000 bf14 33fa eaf9 3a01 2326 d912 07de
00000070: 43dc af07 42ce 9fcb ea07 1920 b2d2 e0f4
00000080: 331b b22c 35f9 43ec d2f9 12a4 cf03 0734
00000090: c828 e844 5319 d80e 1226 1714 dd50 eecd
000000a0: 4d17 39da 1a39 7fe0 26c4 4c19 97fe ea1d
000000b0: 98e1 ea09 47a4 2c19 595a eab1 ceb9 251b
000000c0: fd13 62b4 f9ef 3a7f 6bf8 0ed0 f7d0 0a91
000000d0: 16a5 bc2b 23bf b119 fb03 9921 1b0b 1d44
000000e0: c4a3 d04a f8a0 2a45 6f71 b2c4 c05e 5814
000000f0: eec4 f3e3 d241 0667 4106 1ecc 9b5e f045
-43 -78 48 -111 6 27 -74 31
100 -23 10 -33 -7 -94 24 82
-28 -61 -30 -127 1 35 46 9
42 -12 41 -16 -61 -115 98 -27
-3 -19 -33 -62 -64 -121 12 -42
-21 -17 -10 43 -55 -5 30 10
-40 11 26 -12 -91 -47 -32 -24
47 39 -18 -15 61 84 -82 41
-127 -95 -6 23 -3 -18 -19 -1
64 7 15 48 119 -16 -16 58
58 -3 23 -5 76 30 -15 -8
-42 -45 -23 59 77 26 -2 27
-32 0 -65 20 51 -6 -22 -7
58 1 35 38 -39 18 7 -34
67 -36 -81 7 66 -50 -97 -53
-22 7 25 32 -78 -46 -32 -12
51 27 -78 44 53 -7 67 -20
-46 -7 18 -92 -49 3 7 52
-56 40 -24 68 83 25 -40 14
18 38 23 20 -35 80 -18 -51
77 23 57 -38 26 57 127 -32
38 -60 76 25 -105 -2 -22 29
-104 -31 -22 9 71 -92 44 25
89 90 -22 -79 -50 -71 37 27
-3 19 98 -76 -7 -17 58 127
107 -8 14 -48 -9 -48 10 -111
22 -91 -68 43 35 -65 -79 25
-5 3 -103 33 27 11 29 68
-60 -93 -48 74 -8 -96 42 69
111 113 -78 -60 -64 94 88 20
-18 -60 -13 -29 -46 65 6 103
65 6 30 -52 -101 94 -16 69

tfl.pseudo_qconst15 i1 [1, 11, 1, 32]
00000000: 7f19 7f7f 58e0 5c81 1405 4365 1ac1 acfd
00000010: 750f e081 f881 62a5 0f12 f701 9237 34bb
00000020: 53c5 3020 4bd7 7f00 d947 477f dfc3 d92d
00000030: 649d 0aaf e89d ecc4 2712 b1bc ad58 1396
00000040: c442 5f1e 7fd7 3ad6 e306 273a a3b9 c910
00000050: 299f b08c d8e9 b1e1 1e32 bcbf da07 f0d9
00000060: e165 3333 67c3 2022 90dd 1766 81f2 f581
00000070: 6ddd cbe8 36db 81d4 fd52 b2ba d6d4 95fb
00000080: cc56 3d0a 3cdc ed65 9a81 db28 bfe3 11d7
00000090: 7f93 ad09 69d2 a0cc eb61 cf2f a28f d2be
000000a0: fd7f e203 f1d2 f307 8183 e007 9581 0727
000000b0: 4fad 931a 7fe2 22f1 d4ff e0f9 fd81 3a82
000000c0: 576c 00e5 d620 a620 98ea cae1 cbd3 7f0b
000000d0: 48e7 811c 7109 52ff 8141 2f6c 5dd7 7f81
000000e0: 51fd 01cf 0646 ce1f a9c8 a4cf f0b7 63c9
000000f0: 5a1a 8242 7bd7 7144 9246 3b7f 7f28 24d5
127 25 127 127 88 -32 92 -127
20 5 67 101 26 -63 -84 -3
117 15 -32 -127 -8 -127 98 -91
15 18 -9 1 -110 55 52 -69
83 -59 48 32 75 -41 127 0
-39 71 71 127 -33 -61 -39 45
100 -99 10 -81 -24 -99 -20 -60
39 18 -79 -68 -83 88 19 -106
-60 66 95 30 127 -41 58 -42
-29 6 39 58 -93 -71 -55 16
41 -97 -80 -116 -40 -23 -79 -31
30 50 -68 -65 -38 7 -16 -39
-31 101 51 51 103 -61 32 34
-112 -35 23 102 -127 -14 -11 -127
109 -35 -53 -24 54 -37 -127 -44
-3 82 -78 -70 -42 -44 -107 -5
-52 86 61 10 60 -36 -19 101
-102 -127 -37 40 -65 -29 17 -41
127 -109 -83 9 105 -46 -96 -52
-21 97 -49 47 -94 -113 -46 -66
-3 127 -30 3 -15 -46 -13 7
-127 -125 -32 7 -107 -127 7 39
79 -83 -109 26 127 -30 34 -15
-44 -1 -32 -7 -3 -127 58 -126
87 108 0 -27 -42 32 -90 32
-104 -22 -54 -31 -53 -45 127 11
72 -25 -127 28 113 9 82 -1
-127 65 47 108 93 -41 127 -127
81 -3 1 -49 6 70 -50 31
-87 -56 -92 -49 -16 -73 99 -55
90 26 -126 66 123 -41 113 68
-110 70 59 127 127 40 36 -43

tfl.pseudo_qconst17 i1 [1, 7, 1, 32]
00000000: b35e 0a81 79a3 6381 becb 94ea 4da2 a839
00000010: d162 7fb7 3d7f ab09 9eb4 2f65 2fe7 1cf8
00000020: c627 f7d7 09cc 529c 88eb 81b3 da3f ac32
00000030: 7263 209c 36c7 36bf 8128 2127 3088 209f
00000040: 6164 7f25 4e19 7199 901e 87a3 236f f745
00000050: 7f7f 2fe6 55e2 06a0 adab 0c14 2e81 2a81
00000060: 435c 4122 40bb a4c6 cc02 f0db d87f 40c3
00000070: aa76 f216 7fef 4fe4 06c2 d6fb d8eb 17e9
00000080: 13eb 0f58 7f11 8eba 4f4c ba0c 8145 7bab
00000090: 5e9b de02 caae 33ed 5b96 ca19 e115 4afd
000000a0: 91cf 8f40 f27f 81ac 6e5f 1881 98c0 7f94
000000b0: a7cd b15b ccb1 717f 11bb ae81 8101 51af
000000c0: 8181 a514 9a5e d9c4 7f7f 88cf 8afd c981
000000d0: 8b88 e37f ee83 7fd3 2b81 81b9 bd5c 7f93
-77 94 10 -127 121 -93 99 -127
-66 -53 -108 -22 77 -94 -88 57
-47 98 127 -73 61 127 -85 9
-98 -76 47 101 47 -25 28 -8
-58 39 -9 -41 9 -52 82 -100
-120 -21 -127 -77 -38 63 -84 50
114 99 32 -100 54 -57 54 -65
-127 40 33 39 48 -120 32 -97
97 100 127 37 78 25 113 -103
-112 30 -121 -93 35 111 -9 69
127 127 47 -26 85 -30 6 -96
-83 -85 12 20 46 -127 42 -127
67 92 65 34 64 -69 -92 -58
-52 2 -16 -37 -40 127 64 -61
-86 118 -14 22 127 -17 79 -28
6 -62 -42 -5 -40 -21 23 -23
19 -21 15 88 127 17 -114 -70
79 76 -70 12 -127 69 123 -85
94 -101 -34 2 -54 -82 51 -19
91 -106 -54 25 -31 21 74 -3
-111 -49 -113 64 -14 127 -127 -84
110 95 24 -127 -104 -64 127 -108
-89 -51 -79 91 -52 -79 113 127
17 -69 -82 -127 -127 1 81 -81
-127 -127 -91 20 -102 94 -39 -60
127 127 -120 -49 -118 -3 -55 -127
-117 -120 -29 127 -18 -125 127 -45
43 -127 -127 -71 -67 92 127 -109

tfl.pseudo_qconst19 i1 [64, 1, 1, 32]
00000000: 14fb dbfa 8105 360d 69c5 222b 1e4c cd11
00000010: bc11 d4fd 23f6 ecd9 b8f9 eadc e732 dad2
00000020: 6119 b9c5 2f0a 0e1f 374a 644e cf57 e300
00000030: 89d3 10bd 7fce 0bbd 0603 f867 18c7 6038
00000040: 76f2 7fb9 8100 160d 9303 d928 0dc4 d5bf
00000050: 15c0 ce4e d63f 483a ded0 d7b3 aef6 2000
00000060: 2018 18fd cbff 0510 30e8 f6fd df3b a83f
00000070: 81e3 ddf5 f923 fafa 27d2 cbff ff46 ff1f
00000080: cf39 f809 c718 30fd f3f5 c719 0416 e238
00000090: 7ff0 d1ec 3a0e 0cae 1cdc 2dd9 13d1 e9da
000000a0: 2cdc 0b15 0401 badb ff1f 5a01 e700 ec5f
000000b0: 7681 2bf0 593e fe4c 26fa d5e4 0e29 9fe1
000000c0: c061 e35e fa40 ec01 3f6f 0a25 6e36 b321
000000d0: 181d b0ec 6d2e 061d 010d 19b6 3316 f981
000000e0: 0cfb 25ea 1826 272d 3d15 1c50 f3fb cd0a
000000f0: 8102 a0b3 e9d9 0008 cfbc 33e5 ee1c ead9
20 -5 -37 -6 -127 5 54 13
105 -59 34 43 30 76 -51 17
-68 17 -44 -3 35 -10 -20 -39
-72 -7 -22 -36 -25 50 -38 -46
97 25 -71 -59 47 10 14 31
55 74 100 78 -49 87 -29 0
-119 -45 16 -67 127 -50 11 -67
6 3 -8 103 24 -57 96 56
118 -14 127 -71 -127 0 22 13
-109 3 -39 40 13 -60 -43 -65
21 -64 -50 78 -42 63 72 58
-34 -48 -41 -77 -82 -10 32 0
32 24 24 -3 -53 -1 5 16
48 -24 -10 -3 -33 59 -88 63
-127 -29 -35 -11 -7 35 -6 -6
39 -46 -53 -1 -1 70 -1 31
-49 57 -8 9 -57 24 48 -3
-13 -11 -57 25 4 22 -30 56
127 -16 -47 -20 58 14 12 -82
28 -36 45 -39 19 -47 -23 -38
44 -36 11 21 4 1 -70 -37
-1 31 90 1 -25 0 -20 95
118 -127 43 -16 89 62 -2 76
38 -6 -43 -28 14 41 -97 -31
-64 97 -29 94 -6 64 -20 1
63 111 10 37 110 54 -77 33
24 29 -80 -20 109 46 6 29
1 13 25 -74 51 22 -7 -127
12 -5 37 -22 24 38 39 45
61 21 28 80 -13 -5 -51 10
-127 2 -96 -77 -23 -39 0 8
-49 -68 51 -27 -18 28 -22 -39

tfl.pseudo_qconst21 i1 [1, 5, 1, 32]
00000000: 26cd 82f5 237f 4893 3f7f 4338 d07f cf99
00000010: 965e edb8 3bc3 27bb 3581 f635 3f7e 3f6d
00000020: 2220 0b41 2959 7f0e 1e37 1a03 c93e d0d8
00000030: 717f 2904 1205 0b8d 5872 f17f 3e37 2059
00000040: 7fdf df43 9a70 3c60 3d43 df0c 8135 ba81
00000050: 7fe8 61e4 46da ddb7 6c09 452a 45e2 187f
00000060: 58e2 8168 8122 547f 5d58 b09c ae5b 7fd0
00000070: 02a2 dcaa 709c 8181 787a 95cc 7fee c763
00000080: 2381 a37f b5b9 283e 7f4a 8181 4051 5140
00000090: 908f 8181 7f81 bfcb 812f 81c0 3b7f 7fcd
38 -51 -126 -11 35 127 72 -109
63 127 67 56 -48 127 -49 -103
-106 94 -19 -72 59 -61 39 -69
53 -127 -10 53 63 126 63 109
34 32 11 65 41 89 127 14
30 55 26 3 -55 62 -48 -40
113 127 41 4 18 5 11 -115
88 114 -15 127 62 55 32 89
127 -33 -33 67 -102 112 60 96
61 67 -33 12 -127 53 -70 -127
127 -24 97 -28 70 -38 -35 -73
108 9 69 42 69 -30 24 127
88 -30 -127 104 -127 34 84 127
93 88 -80 -100 -82 91 127 -48
2 -94 -36 -86 112 -100 -127 -127
120 122 -107 -52 127 -18 -57 99
35 -127 -93 127 -75 -71 40 62
127 74 -127 -127 64 81 81 64
-112 -113 -127 -127 127 -127 -65 -53
-127 47 -127 -64 59 127 127 -51

tfl.pseudo_qconst23 i1 [32, 5, 1, 40]
00000000: 5620 4915 3eef fe12 3539 355c 3934 2ce3
00000010: 22ee fded e225 dad6 b7ae b3b4 bfcc e2bd
00000020: e8b6 bdce 2fe3 426a 29f7 4119 01c8 e6f9
00000030: 251d 1e30 2e1f 1cf4 18dd fe12 01ea e9e1
00000040: b3a0 92c8 8ec2 b093 b1a6 be8c 0581 5929
00000050: 2cd7 3ee9 05da e0c1 f40d 1846 1b2f 20cf
00000060: e8df 18e3 fae5 fbde c305 d8e6 d70c ebb7
00000070: cbb2 ddb8 12a5 2146 2ad7 35f7 f79b ccb2
00000080: fdda f626 f720 30e6 f4c7 03f1 090d dad0
00000090: ff19 ec05 dc3b 1de3 d4fa f805 1acd 5953
000000a0: 38ca 0dcc 2289 a98b ffc6 1ded 10fd 0ab1
000000b0: f5e7 15f9 3ee2 dddc f3fc d037 003b 2103
000000c0: 03ff 1503 2fc0 451d c5c0 a39e a6fb d9e1
000000d0: d611 dd07 e22b 1208 fd28 02ef 2a15 2f31
000000e0: 2b42 0c21 f20a 002d f932 0afc 010b 120b
000000f0: dcd7 b1be 93e1 eedc d7f2 fefd fe1a 1ff4
86 32 73 21 62 -17 -2 18
53 57 53 92 57 52 44 -29
34 -18 -3 -19 -30 37 -38 -42
-73 -82 -77 -76 -65 -52 -30 -67
-24 -74 -67 -50 47 -29 66 106
41 -9 65 25 1 -56 -26 -7
37 29 30 48 46 31 28 -12
24 -35 -2 18 1 -22 -23 -31
-77 -96 -110 -56 -114 -62 -80 -109
-79 -90 -66 -116 5 -127 89 41
44 -41 62 -23 5 -38 -32 -63
-12 13 24 70 27 47 32 -49
-24 -33 24 -29 -6 -27 -5 -34
-61 5 -40 -26 -41 12 -21 -73
-53 -78 -35 -72 18 -91 33 70
42 -41 53 -9 -9 -101 -52 -78
-3 -38 -10 38 -9 32 48 -26
-12 -57 3 -15 9 13 -38 -48
-1 25 -20 5 -36 59 29 -29
-44 -6 -8 5 26 -51 89 83
56 -54 13 -52 34 -119 -87 -117
-1 -58 29 -19 16 -3 10 -79
-11 -25 21 -7 62 -30 -35 -36
-13 -4 -48 55 0 59 33 3
3 -1 21 3 47 -64 69 29
-59 -64 -93 -98 -90 -5 -39 -31
-42 17 -35 7 -30 43 18 8
-3 40 2 -17 42 21 47 49
43 66 12 33 -14 10 0 45
-7 50 10 -4 1 11 18 11
-36 -41 -79 -66 -109 -31 -18 -36
-41 -14 -2 -3 -2 26 31 -12

tfl.pseudo_qconst24 i1 [1, 22, 1, 64] scale=0.046538375 zero_point=-128
00000000: 8080 8080 8080 8080 8080 8080 8080 8080
00000010: 8080 8080 8080 8080 8080 8080 8080 8080
00000020: 8080 8080 8080 8080 8080 8080 8080 8080
00000030: 8080 8080 8080 8080 8080 8080 8080 8080
00000040: 8080 8080 8080 8080 8080 8080 8080 8080
00000050: 8080 8080 8080 8080 8080 8080 8080 8080
00000060: 8080 8080 8080 8080 8080 8080 8080 8080
00000070: 8080 8080 8080 8080 8080 8080 8080 8080
00000080: 8080 8080 8080 8080 8080 8080 8080 8080
00000090: 8080 8080 8080 8080 8080 8080 8080 8080
000000a0: 8080 8080 8080 8080 8080 8080 8080 8080
000000b0: 8080 8080 8080 8080 8080 8080 8080 8080
000000c0: 8080 8080 8080 8080 8080 8080 8080 8080
000000d0: 8080 8080 8080 8080 8080 8080 8080 8080
000000e0: 8080 8080 8080 8080 8080 8080 8080 8080
000000f0: 8080 8080 8080 8080 8080 8080 8080 8080
0.0 0.0 0.0 0.0 0.0 0.0 0.0 0.0
0.0 0.0 0.0 0.0 0.0 0.0 0.0 0.0
0.0 0.0 0.0 0.0 0.0 0.0 0.0 0.0
0.0 0.0 0.0 0.0 0.0 0.0 0.0 0.0
0.0 0.0 0.0 0.0 0.0 0.0 0.0 0.0
0.0 0.0 0.0 0.0 0.0 0.0 0.0 0.0
0.0 0.0 0.0 0.0 0.0 0.0 0.0 0.0
0.0 0.0 0.0 0.0 0.0 0.0 0.0 0.0
0.0 0.0 0.0 0.0 0.0 0.0 0.0 0.0
0.0 0.0 0.0 0.0 0.0 0.0 0.0 0.0
0.0 0.0 0.0 0.0 0.0 0.0 0.0 0.0
0.0 0.0 0.0 0.0 0.0 0.0 0.0 0.0
0.0 0.0 0.0 0.0 0.0 0.0 0.0 0.0
0.0 0.0 0.0 0.0 0.0 0.0 0.0 0.0
0.0 0.0 0.0 0.0 0.0 0.0 0.0 0.0
0.0 0.0 0.0 0.0 0.0 0.0 0.0 0.0
0.0 0.0 0.0 0.0 0.0 0.0 0.0 0.0
0.0 0.0 0.0 0.0 0.0 0.0 0.0 0.0
0.0 0.0 0.0 0.0 0.0 0.0 0.0 0.0
0.0 0.0 0.0 0.0 0.0 0.0 0.0 0.0
0.0 0.0 0.0 0.0 0.0 0.0 0.0 0.0
0.0 0.0 0.0 0.0 0.0 0.0 0.0 0.0
0.0 0.0 0.0 0.0 0.0 0.0 0.0 0.0
0.0 0.0 0.0 0.0 0.0 0.0 0.0 0.0
0.0 0.0 0.0 0.0 0.0 0.0 0.0 0.0
0.0 0.0 0.0 0.0 0.0 0.0 0.0 0.0
0.0 0.0 0.0 0.0 0.0 0.0 0.0 0.0
0.0 0.0 0.0 0.0 0.0 0.0 0.0 0.0
0.0 0.0 0.0 0.0 0.0 0.0 0.0 0.0
0.0 0.0 0.0 0.0 0.0 0.0 0.0 0.0
0.0 0.0 0.0 0.0 0.0 0.0 0.0 0.0
0.0 0.0 0.0 0.0 0.0 0.0 0.0 0.0

tfl.pseudo_qconst25 i1 [1, 36, 1, 64] scale=0.02748744 zero_point=-128
00000000: 8080 8080 8080 8080 8080 8080 8080 8080
00000010: 8080 8080 8080 8080 8080 8080 8080 8080
00000020: 8080 8080 8080 8080 8080 8080 8080 8080
00000030: 8080 8080 8080 8080 8080 8080 8080 8080
00000040: 8080 8080 8080 8080 8080 8080 8080 8080
00000050: 8080 8080 8080 8080 8080 8080 8080 8080
00000060: 8080 8080 8080 8080 8080 8080 8080 8080
00000070: 8080 8080 8080 8080 8080 8080 8080 8080
00000080: 8080 8080 8080 8080 8080 8080 8080 8080
00000090: 8080 8080 8080 8080 8080 8080 8080 8080
000000a0: 8080 8080 8080 8080 8080 8080 8080 8080
000000b0: 8080 8080 8080 8080 8080 8080 8080 8080
000000c0: 8080 8080 8080 8080 8080 8080 8080 8080
000000d0: 8080 8080 8080 8080 8080 8080 8080 8080
000000e0: 8080 8080 8080 8080 8080 8080 8080 8080
000000f0: 8080 8080 8080 8080 8080 8080 8080 8080
0.0 0.0 0.0 0.0 0.0 0.0 0.0 0.0
0.0 0.0 0.0 0.0 0.0 0.0 0.0 0.0
0.0 0.0 0.0 0.0 0.0 0.0 0.0 0.0
0.0 0.0 0.0 0.0 0.0 0.0 0.0 0.0
0.0 0.0 0.0 0.0 0.0 0.0 0.0 0.0
0.0 0.0 0.0 0.0 0.0 0.0 0.0 0.0
0.0 0.0 0.0 0.0 0.0 0.0 0.0 0.0
0.0 0.0 0.0 0.0 0.0 0.0 0.0 0.0
0.0 0.0 0.0 0.0 0.0 0.0 0.0 0.0
0.0 0.0 0.0 0.0 0.0 0.0 0.0 0.0
0.0 0.0 0.0 0.0 0.0 0.0 0.0 0.0
0.0 0.0 0.0 0.0 0.0 0.0 0.0 0.0
0.0 0.0 0.0 0.0 0.0 0.0 0.0 0.0
0.0 0.0 0.0 0.0 0.0 0.0 0.0 0.0
0.0 0.0 0.0 0.0 0.0 0.0 0.0 0.0
0.0 0.0 0.0 0.0 0.0 0.0 0.0 0.0
0.0 0.0 0.0 0.0 0.0 0.0 0.0 0.0
0.0 0.0 0.0 0.0 0.0 0.0 0.0 0.0
0.0 0.0 0.0 0.0 0.0 0.0 0.0 0.0
0.0 0.0 0.0 0.0 0.0 0.0 0.0 0.0
0.0 0.0 0.0 0.0 0.0 0.0 0.0 0.0
0.0 0.0 0.0 0.0 0.0 0.0 0.0 0.0
0.0 0.0 0.0 0.0 0.0 0.0 0.0 0.0
0.0 0.0 0.0 0.0 0.0 0.0 0.0 0.0
0.0 0.0 0.0 0.0 0.0 0.0 0.0 0.0
0.0 0.0 0.0 0.0 0.0 0.0 0.0 0.0
0.0 0.0 0.0 0.0 0.0 0.0 0.0 0.0
0.0 0.0 0.0 0.0 0.0 0.0 0.0 0.0
0.0 0.0 0.0 0.0 0.0 0.0 0.0 0.0
0.0 0.0 0.0 0.0 0.0 0.0 0.0 0.0
0.0 0.0 0.0 0.0 0.0 0.0 0.0 0.0
0.0 0.0 0.0 0.0 0.0 0.0 0.0 0.0

tfl.pseudo_qconst26 i1 [1, 3, 1, 40] scale=0.101960786 zero_point=-128
00000000: 8080 8080 8080 8080 8080 8080 8080 8080
00000010: 8080 8080 8080 8080 8080 8080 8080 8080
00000020: 8080 8080 8080 8080 8080 8080 8080 8080
00000030: 8080 8080 8080 8080 8080 8080 8080 8080
00000040: 8080 8080 8080 8080 8080 8080 8080 8080
00000050: 8080 8080 8080 8080 8080 8080 8080 8080
00000060: 8080 8080 8080 8080 8080 8080 8080 8080
00000070: 8080 8080 8080 8080
0.0 0.0 0.0 0.0 0.0 0.0 0.0 0.0
0.0 0.0 0.0 0.0 0.0 0.0 0.0 0.0
0.0 0.0 0.0 0.0 0.0 0.0 0.0 0.0
0.0 0.0 0.0 0.0 0.0 0.0 0.0 0.0
0.0 0.0 0.0 0.0 0.0 0.0 0.0 0.0
0.0 0.0 0.0 0.0 0.0 0.0 0.0 0.0
0.0 0.0 0.0 0.0 0.0 0.0 0.0 0.0
0.0 0.0 0.0 0.0 0.0 0.0 0.0 0.0
0.0 0.0 0.0 0.0 0.0 0.0 0.0 0.0
0.0 0.0 0.0 0.0 0.0 0.0 0.0 0.0
0.0 0.0 0.0 0.0 0.0 0.0 0.0 0.0
0.0 0.0 0.0 0.0 0.0 0.0 0.0 0.0
0.0 0.0 0.0 0.0 0.0 0.0 0.0 0.0
0.0 0.0 0.0 0.0 0.0 0.0 0.0 0.0
0.0 0.0 0.0 0.0 0.0 0.0 0.0 0.0

tfl.pseudo_qconst27 i1 [1, 4, 1, 32] scale=1.4666452 zero_point=-128
00000000: 8080 8080 8080 8080 8080 8080 8080 8080
00000010: 8080 8080 8080 8080 8080 8080 8080 8080
00000020: 8080 8080 8080 8080 8080 8080 8080 8080
00000030: 8080 8080 8080 8080 8080 8080 8080 8080
00000040: 8080 8080 8080 8080 8080 8080 8080 8080
00000050: 8080 8080 8080 8080 8080 8080 8080 8080
00000060: 8080 8080 8080 8080 8080 8080 8080 8080
00000070: 8080 8080 8080 8080 8080 8080 8080 8080
0.0 0.0 0.0 0.0 0.0 0.0 0.0 0.0
0.0 0.0 0.0 0.0 0.0 0.0 0.0 0.0
0.0 0.0 0.0 0.0 0.0 0.0 0.0 0.0
0.0 0.0 0.0 0.0 0.0 0.0 0.0 0.0
0.0 0.0 0.0 0.0 0.0 0.0 0.0 0.0
0.0 0.0 0.0 0.0 0.0 0.0 0.0 0.0
0.0 0.0 0.0 0.0 0.0 0.0 0.0 0.0
0.0 0.0 0.0 0.0 0.0 0.0 0.0 0.0
0.0 0.0 0.0 0.0 0.0 0.0 0.0 0.0
0.0 0.0 0.0 0.0 0.0 0.0 0.0 0.0
0.0 0.0 0.0 0.0 0.0 0.0 0.0 0.0
0.0 0.0 0.0 0.0 0.0 0.0 0.0 0.0
0.0 0.0 0.0 0.0 0.0 0.0 0.0 0.0
0.0 0.0 0.0 0.0 0.0 0.0 0.0 0.0
0.0 0.0 0.0 0.0 0.0 0.0 0.0 0.0
0.0 0.0 0.0 0.0 0.0 0.0 0.0 0.0

tfl.pseudo_qconst28 i1 [1, 10, 1, 64] scale=0.0418094 zero_point=-128
00000000: 8080 8080 8080 8080 8080 8080 8080 8080
00000010: 8080 8080 8080 8080 8080 8080 8080 8080
00000020: 8080 8080 8080 8080 8080 8080 8080 8080
00000030: 8080 8080 8080 8080 8080 8080 8080 8080
00000040: 8080 8080 8080 8080 8080 8080 8080 8080
00000050: 8080 8080 8080 8080 8080 8080 8080 8080
00000060: 8080 8080 8080 8080 8080 8080 8080 8080
00000070: 8080 8080 8080 8080 8080 8080 8080 8080
00000080: 8080 8080 8080 8080 8080 8080 8080 8080
00000090: 8080 8080 8080 8080 8080 8080 8080 8080
000000a0: 8080 8080 8080 8080 8080 8080 8080 8080
000000b0: 8080 8080 8080 8080 8080 8080 8080 8080
000000c0: 8080 8080 8080 8080 8080 8080 8080 8080
000000d0: 8080 8080 8080 8080 8080 8080 8080 8080
000000e0: 8080 8080 8080 8080 8080 8080 8080 8080
000000f0: 8080 8080 8080 8080 8080 8080 8080 8080
0.0 0.0 0.0 0.0 0.0 0.0 0.0 0.0
0.0 0.0 0.0 0.0 0.0 0.0 0.0 0.0
0.0 0.0 0.0 0.0 0.0 0.0 0.0 0.0
0.0 0.0 0.0 0.0 0.0 0.0 0.0 0.0
0.0 0.0 0.0 0.0 0.0 0.0 0.0 0.0
0.0 0.0 0.0 0.0 0.0 0.0 0.0 0.0
0.0 0.0 0.0 0.0 0.0 0.0 0.0 0.0
0.0 0.0 0.0 0.0 0.0 0.0 0.0 0.0
0.0 0.0 0.0 0.0 0.0 0.0 0.0 0.0
0.0 0.0 0.0 0.0 0.0 0.0 0.0 0.0
0.0 0.0 0.0 0.0 0.0 0.0 0.0 0.0
0.0 0.0 0.0 0.0 0.0 0.0 0.0 0.0
0.0 0.0 0.0 0.0 0.0 0.0 0.0 0.0
0.0 0.0 0.0 0.0 0.0 0.0 0.0 0.0
0.0 0.0 0.0 0.0 0.0 0.0 0.0 0.0
0.0 0.0 0.0 0.0 0.0 0.0 0.0 0.0
0.0 0.0 0.0 0.0 0.0 0.0 0.0 0.0
0.0 0.0 0.0 0.0 0.0 0.0 0.0 0.0
0.0 0.0 0.0 0.0 0.0 0.0 0.0 0.0
0.0 0.0 0.0 0.0 0.0 0.0 0.0 0.0
0.0 0.0 0.0 0.0 0.0 0.0 0.0 0.0
0.0 0.0 0.0 0.0 0.0 0.0 0.0 0.0
0.0 0.0 0.0 0.0 0.0 0.0 0.0 0.0
0.0 0.0 0.0 0.0 0.0 0.0 0.0 0.0
0.0 0.0 0.0 0.0 0.0 0.0 0.0 0.0
0.0 0.0 0.0 0.0 0.0 0.0 0.0 0.0
0.0 0.0 0.0 0.0 0.0 0.0 0.0 0.0
0.0 0.0 0.0 0.0 0.0 0.0 0.0 0.0
0.0 0.0 0.0 0.0 0.0 0.0 0.0 0.0
0.0 0.0 0.0 0.0 0.0 0.0 0.0 0.0
0.0 0.0 0.0 0.0 0.0 0.0 0.0 0.0
0.0 0.0 0.0 0.0 0.0 0.0 0.0 0.0

tfl.pseudo_qconst29 i1 [1, 14, 1, 64] scale=0.0491376 zero_point=-128
00000000: 8080 8080 8080 8080 8080 8080 8080 8080
00000010: 8080 8080 8080 8080 8080 8080 8080 8080
00000020: 8080 8080 8080 8080 8080 8080 8080 8080
00000030: 8080 8080 8080 8080 8080 8080 8080 8080
00000040: 8080 8080 8080 8080 8080 8080 8080 8080
00000050: 8080 8080 8080 8080 8080 8080 8080 8080
00000060: 8080 8080 8080 8080 8080 8080 8080 8080
00000070: 8080 8080 8080 8080 8080 8080 8080 8080
00000080: 8080 8080 8080 8080 8080 8080 8080 8080
00000090: 8080 8080 8080 8080 8080 8080 8080 8080
000000a0: 8080 8080 8080 8080 8080 8080 8080 8080
000000b0: 8080 8080 8080 8080 8080 8080 8080 8080
000000c0: 8080 8080 8080 8080 8080 8080 8080 8080
000000d0: 8080 8080 8080 8080 8080 8080 8080 8080
000000e0: 8080 8080 8080 8080 8080 8080 8080 8080
000000f0: 8080 8080 8080 8080 8080 8080 8080 8080
0.0 0.0 0.0 0.0 0.0 0.0 0.0 0.0
0.0 0.0 0.0 0.0 0.0 0.0 0.0 0.0
0.0 0.0 0.0 0.0 0.0 0.0 0.0 0.0
0.0 0.0 0.0 0.0 0.0 0.0 0.0 0.0
0.0 0.0 0.0 0.0 0.0 0.0 0.0 0.0
0.0 0.0 0.0 0.0 0.0 0.0 0.0 0.0
0.0 0.0 0.0 0.0 0.0 0.0 0.0 0.0
0.0 0.0 0.0 0.0 0.0 0.0 0.0 0.0
0.0 0.0 0.0 0.0 0.0 0.0 0.0 0.0
0.0 0.0 0.0 0.0 0.0 0.0 0.0 0.0
0.0 0.0 0.0 0.0 0.0 0.0 0.0 0.0
0.0 0.0 0.0 0.0 0.0 0.0 0.0 0.0
0.0 0.0 0.0 0.0 0.0 0.0 0.0 0.0
0.0 0.0 0.0 0.0 0.0 0.0 0.0 0.0
0.0 0.0 0.0 0.0 0.0 0.0 0.0 0.0
0.0 0.0 0.0 0.0 0.0 0.0 0.0 0.0
0.0 0.0 0.0 0.0 0.0 0.0 0.0 0.0
0.0 0.0 0.0 0.0 0.0 0.0 0.0 0.0
0.0 0.0 0.0 0.0 0.0 0.0 0.0 0.0
0.0 0.0 0.0 0.0 0.0 0.0 0.0 0.0
0.0 0.0 0.0 0.0 0.0 0.0 0.0 0.0
0.0 0.0 0.0 0.0 0.0 0.0 0.0 0.0
0.0 0.0 0.0 0.0 0.0 0.0 0.0 0.0
0.0 0.0 0.0 0.0 0.0 0.0 0.0 0.0
0.0 0.0 0.0 0.0 0.0 0.0 0.0 0.0
0.0 0.0 0.0 0.0 0.0 0.0 0.0 0.0
0.0 0.0 0.0 0.0 0.0 0.0 0.0 0.0
0.0 0.0 0.0 0.0 0.0 0.0 0.0 0.0
0.0 0.0 0.0 0.0 0.0 0.0 0.0 0.0
0.0 0.0 0.0 0.0 0.0 0.0 0.0 0.0
0.0 0.0 0.0 0.0 0.0 0.0 0.0 0.0
0.0 0.0 0.0 0.0 0.0 0.0 0.0 0.0
