models/terminator.tflite (tflite, 63544 bytes, 18 tensors)

tfl.pseudo_qconst1 i1 [1, 2368] scale=0.0051636193 zero_point=0
-0.015490858 -0.22203563 0.11359963 0.07745429 0.06196343 0.0051636193 -0.20654477 0.030981716
-0.1600722 -0.118763246 0.0 -0.07745429 0.04647257 -0.1342541 -0.16523582 -0.28399906
0.015490858 -0.33563524 -0.36661696 -0.04647257 0.09294514 0.087781526 -0.020654477 -0.08261791
0.09294514 -0.1600722 0.17556305 0.118763246 -0.015490858 0.25301734 -0.13941772 -0.12392686
-0.056799814 -0.030981716 0.030981716 -0.056799814 -0.13941772 -0.030981716 -0.09294514 -0.20138115
0.030981716 -0.30465353 -0.1342541 -0.025818096 0.020654477 -0.28399906 0.08261791 -0.06712705
-0.056799814 -0.17556305 0.07745429 -0.14974496 -0.108436 0.010327239 -0.22719926 -0.09810877
-0.12909049 0.025818096 -0.041308954 -0.27367184 0.06196343 -0.2633446 -0.087781526 0.14458135
-0.020654477 -0.06196343 0.09294514 0.041308954 0.041308954 -0.06712705 -0.19105391 0.025818096
-0.14458135 -0.07745429 0.0051636193 0.0051636193 0.051636193 -0.04647257 -0.04647257 -0.22203563
0.020654477 -0.18589029 -0.34079888 -0.010327239 0.072290674 0.020654477 -0.036145337 -0.020654477
0.07745429 -0.030981716 0.11359963 0.12909049 0.0 0.17556305 -0.118763246 -0.04647257
-0.0051636193 -0.06196343 0.051636193 -0.051636193 -0.14458135 -0.06196343 -0.072290674 -0.12392686
0.0 -0.2117084 0.0051636193 0.051636193 0.015490858 -0.1342541 0.0 -0.036145337
-0.041308954 -0.051636193 0.025818096 -0.14974496 -0.030981716 0.025818096 -0.09294514 -0.07745429
0.020654477 0.09294514 0.020654477 -0.27367184 0.051636193 -0.17556305 -0.07745429 0.16523582
0.030981716 -0.072290674 0.04647257 0.056799814 0.0051636193 -0.020654477 -0.103272386 0.020654477
-0.17039944 -0.030981716 0.04647257 0.041308954 0.13941772 -0.015490858 0.04647257 -0.103272386
-0.041308954 -0.118763246 -0.23236287 0.030981716 0.030981716 0.0051636193 0.010327239 -0.020654477
0.08261791 0.0051636193 -0.015490858 0.072290674 0.036145337 0.103272386 -0.11359963 -0.015490858
-0.056799814 -0.010327239 0.0051636193 0.015490858 -0.108436 0.020654477 -0.072290674 -0.07745429
0.015490858 -0.118763246 -0.030981716 0.056799814 -0.025818096 -0.09294514 -0.030981716 -0.015490858
-0.010327239 0.06196343 -0.051636193 -0.04647257 -0.06196343 0.12392686 0.04647257 -0.16523582
0.010327239 -0.015490858 -0.04647257 -0.16523582 0.072290674 -0.11359963 -0.13941772 0.18589029
0.04647257 -0.056799814 -0.010327239 -0.020654477 0.010327239 0.015490858 -0.051636193 -0.025818096
-0.09810877 -0.09810877 -0.020654477 -0.04647257 0.06712705 -0.06196343 0.0051636193 -0.087781526
0.015490858 -0.010327239 -0.16523582 0.015490858 -0.08261791 -0.08261791 0.030981716 0.030981716
0.036145337 0.0051636193 -0.07745429 0.103272386 -0.010327239 0.103272386 -0.14974496 0.06196343
-0.108436 -0.051636193 -0.07745429 -0.010327239 -0.056799814 0.010327239 -0.051636193 -0.030981716
0.015490858 -0.025818096 0.0 0.041308954 0.0 0.036145337 -0.087781526 0.036145337
-0.12392686 0.025818096 -0.09810877 -0.010327239 0.010327239 0.07745429 0.025818096 -0.20138115
0.06712705 0.015490858 0.010327239 -0.14458135 -0.056799814 -0.1600722 -0.14974496 0.118763246
00000000: fdd5 160f 0c01 d806 e1e9 00f1 09e6 e0c9
00000010: 03bf b9f7 1211 fcf0 12e1 2217 fd31 e5e8
00000020: f5fa 06f5 e5fa eed9 06c5 e6fb 04c9 10f3
00000030: f5de 0fe3 eb02 d4ed e705 f8cb 0ccd ef1c
00000040: fcf4 1208 08f3 db05 e4f1 0101 0af7 f7d5
00000050: 04dc befe 0e04 f9fc 0ffa 1619 0022 e9f7
00000060: fff4 0af6 e4f4 f2e8 00d7 010a 03e6 00f9
00000070: f8f6 05e3 fa05 eef1 0412 04cb 0ade f120
00000080: 06f2 090b 01fc ec04 dffa 0908 1bfd 09ec
00000090: f8e9 d306 0601 02fc 1001 fd0e 0714 eafd
000000a0: f5fe 0103 eb04 f2f1 03e9 fa0b fbee fafd
000000b0: fe0c f6f7 f418 09e0 02fd f7e0 0eea e524
000000c0: 09f5 fefc 0203 f6fb eded fcf7 0df4 01ef
000000d0: 03fe e003 f0f0 0606 0701 f114 fe14 e30c
000000e0: ebf6 f1fe f502 f6fa 03fb 0008 0007 ef07
000000f0: e805 edfe 020f 05d9 0d03 02e4 f5e1 e317

tfl.pseudo_qconst3 i1 [64, 1, 1, 64]
79 28 56 62 -72 2 -36 -20
-4 -30 42 12 -32 -21 21 68
-87 71 -27 40 -43 -18 -3 -65
47 -66 28 27 20 42 64 -21
-70 -5 -6 10 100 32 -46 -60
16 30 120 52 -11 42 -22 9
-35 27 70 -37 72 -39 18 -42
25 -100 5 71 23 -51 127 31
-37 -37 6 9 -34 -9 -21 22
-127 8 -12 -30 -15 19 -5 -27
-37 -15 -13 -24 25 -44 -11 -23
-15 28 -12 1 0 6 -20 24
13 -80 8 0 -16 8 -3 16
16 46 20 -6 -22 -4 25 46
-29 31 12 -16 10 5 18 8
-17 -27 -53 9 25 -31 -1 -14
21 7 -8 -27 -19 25 62 12
1 -8 -11 4 -58 -13 7 -17
19 -3 -14 -26 0 5 -127 15
18 -21 24 7 5 -6 -12 -18
-15 1 31 30 -6 2 -4 24
14 -37 -24 34 -98 -21 14 -24
-16 -21 32 -36 -14 35 -2 12
-33 -27 11 1 -22 34 -11 -2
-36 74 -19 -29 79 -35 120 -41
-6 -33 -27 27 61 38 3 70
8 22 14 -9 66 17 -3 -42
24 -29 -18 87 27 -3 35 -31
-9 -10 -2 58 -33 -37 -38 18
-110 -49 6 13 -19 38 -50 -29
-19 40 -68 -16 -68 33 51 -62
-38 13 6 24 -63 19 26 127
00000000: 4f1c 383e b802 dcec fce2 2a0c e0eb 1544
00000010: a947 e528 d5ee fdbf 2fbe 1c1b 142a 40eb
00000020: bafb fa0a 6420 d2c4 101e 7834 f52a ea09
00000030: dd1b 46db 48d9 12d6 199c 0547 17cd 7f1f
00000040: dbdb 0609 def7 eb16 8108 f4e2 f113 fbe5
00000050: dbf1 f3e8 19d4 f5e9 f11c f401 0006 ec18
00000060: 0db0 0800 f008 fd10 102e 14fa eafc 192e
00000070: e31f 0cf0 0a05 1208 efe5 cb09 19e1 fff2
00000080: 1507 f8e5 ed19 3e0c 01f8 f504 c6f3 07ef
00000090: 13fd f2e6 0005 810f 12eb 1807 05fa f4ee
000000a0: f101 1f1e fa02 fc18 0edb e822 9eeb 0ee8
000000b0: f0eb 20dc f223 fe0c dfe5 0b01 ea22 f5fe
000000c0: dc4a ede3 4fdd 78d7 fadf e51b 3d26 0346
000000d0: 0816 0ef7 4211 fdd6 18e3 ee57 1bfd 23e1
000000e0: f7f6 fe3a dfdb da12 92cf 060d ed26 cee3
000000f0: ed28 bcf0 bc21 33c2 da0d 0618 c113 1a7f

tfl.pseudo_qconst5 i1 [1, 23, 1, 64]
-41 -107 -63 4 82 -48 -44 -12
20 35 42 -62 6 127 -127 -10
-28 110 102 -127 -45 2 72 53
127 99 69 -28 -10 105 127 -127
80 31 116 23 -127 -127 71 -123
-5 32 -127 -104 127 43 45 -31
47 -103 -37 98 -1 -127 -23 -127
-17 48 51 85 68 127 -84 -121
59 -54 -17 14 94 -41 -51 11
18 73 26 -48 41 124 -90 -37
-41 55 127 -99 -58 -25 87 -53
109 110 64 -25 1 84 113 -33
120 12 26 32 -71 -74 80 -127
-32 23 -103 -127 123 26 23 -38
42 -81 -39 23 32 -74 -15 -70
-27 56 50 79 21 106 -88 -96
45 -10 -5 -41 78 -69 -61 -20
22 75 -7 -34 31 80 -107 5
-63 71 76 -67 -38 12 95 -34
-33 114 76 6 -76 95 73 -30
127 -6 -65 90 -47 -54 58 -92
-41 20 -67 -105 105 12 7 -8
86 -127 -26 70 1 -70 -5 9
-28 42 36 48 3 86 -92 -127
28 4 7 9 88 -60 -73 7
15 92 -27 -28 59 94 -95 -15
-45 -4 22 -78 -32 -6 61 0
-20 92 10 -4 54 -21 57 -76
82 -8 8 79 -45 -19 53 -72
0 26 -66 -99 102 16 12 -19
26 -66 -43 30 14 -52 27 8
32 94 40 20 -10 69 -54 -78
00000000: d795 c104 52d0 d4f4 1423 2ac2 067f 81f6
00000010: e46e 6681 d302 4835 7f63 45e4 f669 7f81
00000020: 501f 7417 8181 4785 fb20 8198 7f2b 2de1
00000030: 2f99 db62 ff81 e981 ef30 3355 447f ac87
00000040: 3bca ef0e 5ed7 cd0b 1249 1ad0 297c a6db
00000050: d737 7f9d c6e7 57cb 6d6e 40e7 0154 71df
00000060: 780c 1a20 b9b6 5081 e017 9981 7b1a 17da
00000070: 2aaf d917 20b6 f1ba e538 324f 156a a8a0
00000080: 2df6 fbd7 4ebb c3ec 164b f9de 1f50 9505
00000090: c147 4cbd da0c 5fde df72 4c06 b45f 49e2
000000a0: 7ffa bf5a d1ca 3aa4 d714 bd97 690c 07f8
000000b0: 5681 e646 01ba fb09 e42a 2430 0356 a481
000000c0: 1c04 0709 58c4 b707 0f5c e5e4 3b5e a1f1
000000d0: d3fc 16b2 e0fa 3d00 ec5c 0afc 36eb 39b4
000000e0: 52f8 084f d3ed 35b8 001a be9d 6610 0ced
000000f0: 1abe d51e 0ecc 1b08 205e 2814 f645 cab2

tfl.pseudo_qconst7 i1 [64, 1, 1, 64]
36 -9 -24 -41 -5 -20 -9 22
-37 -80 -73 -8 -40 -3 71 -46
-87 -83 121 -90 101 25 72 107
-97 9 -70 49 -5 -10 -59 -16
-68 -27 -127 32 -95 -56 10 -23
-78 97 -101 39 -56 -59 -25 -42
66 92 -60 18 91 43 88 -17
-26 -28 61 13 -13 -73 -54 58
-37 42 -50 -25 -69 -16 -91 -48
-31 -32 -11 67 3 1 66 2
-127 37 73 -45 53 28 50 -10
-16 -2 14 -24 58 6 -77 37
41 -58 -42 18 -61 -19 -3 28
-28 -11 -50 15 119 -2 83 -15
24 10 12 -37 28 -16 8 44
-28 -68 -42 -64 36 -40 -50 54
-17 -20 -42 -35 -9 -39 99 -36
-16 -1 127 25 -26 45 39 74
-59 -9 -46 18 -9 32 -8 -26
-8 -7 -13 6 -10 -28 68 7
-18 17 -33 0 -33 -19 -7 90
-31 -34 -54 -20 5 -41 -64 33
38 -7 32 -40 -16 -16 16 -1
-25 12 25 26 -18 -1 10 -15
-67 -50 18 -84 -10 13 -39 -6
-44 -76 20 -4 51 -38 -9 -17
-3 -15 1 -106 68 106 124 89
45 68 10 69 -18 -51 57 14
43 24 18 53 -62 -37 -116 15
-40 70 -41 -88 -14 -127 -16 -60
-12 -42 35 7 81 -42 -96 43
-20 -126 -102 14 -48 43 41 64
00000000: 24f7 e8d7 fbec f716 dbb0 b7f8 d8fd 47d2
00000010: a9ad 79a6 6519 486b 9f09 ba31 fbf6 c5f0
00000020: bce5 8120 a1c8 0ae9 b261 9b27 c8c5 e7d6
00000030: 425c c412 5b2b 58ef e6e4 3d0d f3b7 ca3a
00000040: db2a cee7 bbf0 a5d0 e1e0 f543 0301 4202
00000050: 8125 49d3 351c 32f6 f0fe 0ee8 3a06 b325
00000060: 29c6 d612 c3ed fd1c e4f5 ce0f 77fe 53f1
00000070: 180a 0cdb 1cf0 082c e4bc d6c0 24d8 ce36
00000080: efec d6dd f7d9 63dc f0ff 7f19 e62d 274a
00000090: c5f7 d212 f720 f8e6 f8f9 f306 f6e4 4407
000000a0: ee11 df00 dfed f95a e1de caec 05d7 c021
000000b0: 26f9 20d8 f0f0 10ff e70c 191a eeff 0af1
000000c0: bdce 12ac f60d d9fa d4b4 14fc 33da f7ef
000000d0: fdf1 0196 446a 7c59 2d44 0a45 eecd 390e
000000e0: 2b18 1235 c2db 8c0f d846 d7a8 f281 f0c4
000000f0: f4d6 2307 51d6 a02b ec82 9a0e d02b 2940

tfl.pseudo_qconst9 i1 [1, 15, 1, 32]
90 -123 -106 9 -127 37 20 20
17 -13 -57 65 127 -127 124 33
-127 -121 127 127 83 80 127 66
14 -114 94 -108 -25 23 -25 59
7 -32 8 51 -114 -15 7 4
48 -38 -58 55 97 -70 127 -52
-103 -69 100 96 91 -50 104 127
13 -105 -62 -76 0 -2 -113 32
24 -79 27 5 -115 22 127 50
-38 -97 -80 96 61 -71 49 -46
-119 -127 87 67 118 -17 70 84
-13 -102 36 -62 112 -22 -25 3
-53 -96 -21 42 -119 -32 81 63
3 -86 -76 84 21 -90 101 48
-95 -111 89 40 127 -125 77 40
75 -102 -48 7 96 -8 25 19
78 -78 18 -2 -64 48 49 34
-70 -30 -95 57 11 -49 81 0
-46 -42 10 34 27 -9 33 -53
8 -127 -26 12 114 -6 127 23
39 -23 67 -84 -46 31 6 66
-17 -35 -126 4 41 -23 89 -127
-38 -65 63 -31 37 3 63 2
14 -117 -113 -24 79 -4 31 20
19 -66 15 33 -33 10 -97 41
-90 -30 -127 -6 1 -24 45 -124
-6 -57 60 -74 29 -48 -28 76
23 -93 46 -21 -36 15 -57 5
112 -60 111 12 33 -39 -34 26
-14 19 -98 67 -7 1 -57 -12
7 -78 17 -19 12 29 -5 -16
-14 -80 7 -40 -114 31 -13 9
00000000: 5a85 9609 8125 1414 11f3 c741 7f81 7c21
00000010: 8187 7f7f 5350 7f42 0e8e 5e94 e717 e73b
00000020: 07e0 0833 8ef1 0704 30da c637 61ba 7fcc
00000030: 99bb 6460 5bce 687f 0d97 c2b4 00fe 8f20
00000040: 18b1 1b05 8d16 7f32 da9f b060 3db9 31d2
00000050: 8981 5743 76ef 4654 f39a 24c2 70ea e703
00000060: cba0 eb2a 89e0 513f 03aa b454 15a6 6530
00000070: a191 5928 7f83 4d28 4b9a d007 60f8 1913
00000080: 4eb2 12fe c030 3122 bae2 a139 0bcf 5100
00000090: d2d6 0a22 1bf7 21cb 0881 e60c 72fa 7f17
000000a0: 27e9 43ac d21f 0642 efdd 8204 29e9 5981
000000b0: dabf 3fe1 2503 3f02 0e8b 8fe8 4ffc 1f14
000000c0: 13be 0f21 df0a 9f29 a6e2 81fa 01e8 2d84
000000d0: fac7 3cb6 1dd0 e44c 17a3 2eeb dc0f c705
000000e0: 70c4 6f0c 21d9 de1a f213 9e43 f901 c7f4
000000f0: 07b2 11ed 0c1d fbf0 f2b0 07d8 8e1f f309

tfl.pseudo_qconst11 i1 [1, 9, 1, 32]
-104 30 17 -24 35 60 60 24
37 -23 56 1 -32 -72 -123 -38
-65 -89 66 -115 94 25 34 -8
8 90 -70 -29 -75 70 -127 -10
-17 -58 91 -64 -37 -21 46 -10
-9 -13 -11 -30 11 46 -117 46
-15 -12 4 -109 127 107 -60 69
-67 -6 -121 72 -89 -2 -41 10
57 25 70 -69 21 -36 -53 11
-18 -48 54 45 13 -82 -71 -11
24 127 -72 -27 10 111 -65 -20
-68 24 -108 58 -40 -34 -11 29
64 61 33 2 -49 20 29 31
39 -70 25 -20 4 73 -77 61
82 117 78 -127 40 31 46 -12
39 -44 -51 94 -55 -15 78 20
-106 61 5 92 -12 -60 -105 -38
44 31 61 1 21 110 -9 127
68 -78 -103 -91 61 -34 -64 37
-29 23 -127 93 -110 -66 101 3
127 30 82 26 -59 -13 -101 -110
33 -25 35 -61 10 -33 112 71
127 -49 -18 -8 -23 -86 -72 11
19 -49 -59 127 -109 -35 29 -12
60 67 102 51 -76 -15 -127 47
48 -21 -71 -119 10 -103 13 23
72 62 -20 51 48 -28 -35 -15
127 -56 13 112 -127 -119 119 37
52 10 127 82 -62 -22 23 47
76 -127 -124 -127 82 127 127 20
32 -73 -81 47 -52 40 -94 -127
94 -41 57 49 -111 -127 95 70
00000000: 981e 11e8 233c 3c18 25e9 3801 e0b8 85da
00000010: bfa7 428d 5e19 22f8 085a bae3 b546 81f6
00000020: efc6 5bc0 dbeb 2ef6 f7f3 f5e2 0b2e 8b2e
00000030: f1f4 0493 7f6b c445 bdfa 8748 a7fe d70a
00000040: 3919 46bb 15dc cb0b eed0 362d 0dae b9f5
00000050: 187f b8e5 0a6f bfec bc18 943a d8de f51d
00000060: 403d 2102 cf14 1d1f 27ba 19ec 0449 b33d
00000070: 5275 4e81 281f 2ef4 27d4 cd5e c9f1 4e14
00000080: 963d 055c f4c4 97da 2c1f 3d01 156e f77f
00000090: 44b2 99a5 3dde c025 e317 815d 92be 6503
000000a0: 7f1e 521a c5f3 9b92 21e7 23c3 0adf 7047
000000b0: 7fcf eef8 e9aa b80b 13cf c57f 93dd 1df4
000000c0: 3c43 6633 b4f1 812f 30eb b989 0a99 0d17
000000d0: 483e ec33 30e4 ddf1 7fc8 0d70 8189 7725
000000e0: 340a 7f52 c2ea 172f 4c81 8481 527f 7f14
000000f0: 20b7 af2f cc28 a281 5ed7 3931 9181 5f46

tfl.pseudo_qconst13 i1 [64, 1, 1, 64]
21 -44 -2 -67 -19 60 -20 -64
-65 -66 -98 58 -117 13 -14 -49
79 44 -20 -68 41 -71 32 107
49 -36 117 16 -13 -26 44 -62
-62 66 15 -62 44 1 -67 -83
81 -3 -112 -82 23 18 41 -120
-30 -39 -127 -56 13 39 23 -13
-81 84 -39 -100 -46 -43 -8 55
-64 15 -14 -16 -63 -30 -111 -15
-67 52 -12 87 125 -61 42 -99
51 -53 -59 13 -11 31 24 -53
-13 -46 127 5 14 -45 104 1
-93 2 92 66 75 78 66 23
-39 4 -20 19 75 -18 32 15
-33 1 -49 -48 84 -69 -15 7
-13 -81 11 28 -66 49 101 71
51 54 -65 38 71 115 -127 38
72 21 24 16 60 98 -14 -87
45 -63 -24 46 26 -82 14 23
-40 -10 26 36 16 -63 71 -63
-29 -85 -29 97 74 18 94 -58
-9 -41 -16 92 -35 -73 -7 -66
-30 70 -36 -40 -66 -47 -43 51
34 25 10 16 -68 47 -93 -7
28 20 21 92 -56 76 -38 55
7 -27 19 48 -4 36 -27 -27
28 -13 22 27 15 8 33 56
-37 42 69 -16 79 -58 22 -71
11 38 -13 -4 -27 24 71 -94
114 -27 29 73 -20 94 87 -81
-65 20 -9 -127 5 -16 -48 19
46 43 -39 -1 -65 87 80 -13
00000000: 15d4 febd ed3c ecc0 bfbe 9e3a 8b0d f2cf
00000010: 4f2c ecbc 29b9 206b 31dc 7510 f3e6 2cc2
00000020: c242 0fc2 2c01 bdad 51fd 90ae 1712 2988
00000030: e2d9 81c8 0d27 17f3 af54 d99c d2d5 f837
00000040: c00f f2f0 c1e2 91f1 bd34 f457 7dc3 2a9d
00000050: 33cb c50d f51f 18cb f3d2 7f05 0ed3 6801
00000060: a302 5c42 4b4e 4217 d904 ec13 4bee 200f
00000070: df01 cfd0 54bb f107 f3af 0b1c be31 6547
00000080: 3336 bf26 4773 8126 4815 1810 3c62 f2a9
00000090: 2dc1 e82e 1aae 0e17 d8f6 1a24 10c1 47c1
000000a0: e3ab e361 4a12 5ec6 f7d7 f05c ddb7 f9be
000000b0: e246 dcd8 bed1 d533 2219 0a10 bc2f a3f9
000000c0: 1c14 155c c84c da37 07e5 1330 fc24 e5e5
000000d0: 1cf3 161b 0f08 2138 db2a 45f0 4fc6 16b9
000000e0: 0b26 f3fc e518 47a2 72e5 1d49 ec5e 57af
000000f0: bf14 f781 05f0 d013 2e2b d9ff bf57 50f3

tfl.pseudo_qconst15 i1 [1, 11, 1, 32]
-127 24 -47 -127 29 -24 22 76
-5 -24 39 -127 127 -25 69 42
59 99 -50 70 -97 -36 -62 -55
5 -30 64 -82 10 -52 -127 68
-89 26 -36 -80 12 -9 -40 34
-80 -17 5 -34 44 45 -35 120
86 127 -62 102 -38 9 -40 -11
16 -5 69 5 67 -92 -47 88
39 91 -13 -76 54 -17 24 61
-28 -16 -1 -125 -52 95 -121 127
98 24 13 117 -127 18 -82 -127
18 36 65 48 67 -24 -53 127
86 107 52 26 18 -16 -28 37
-48 39 20 -121 -82 53 -115 87
127 86 27 23 -95 -3 -43 -72
89 75 13 112 127 -103 -82 19
72 84 17 -48 89 93 11 -23
-48 101 80 -108 -70 13 -31 7
28 42 88 -13 -37 113 77 -33
66 22 -7 127 85 -7 23 81
-27 127 -4 -15 18 121 -17 -113
-16 127 85 -22 -52 -73 1 -2
37 49 127 8 -74 94 98 88
-52 -12 13 64 35 11 -72 -13
-58 92 -16 -79 52 127 -33 -127
-44 34 71 58 -28 -127 127 -51
-25 37 74 -44 17 -77 120 60
20 -37 -7 -81 46 125 -27 7
-47 -1 -18 -19 -88 -36 -78 -96
61 58 87 -37 34 -50 107 -2
-75 20 41 -127 -12 5 34 53
-60 -107 4 -1 -48 31 27 90
00000000: 8118 d181 1de8 164c fbe8 2781 7fe7 452a
00000010: 3b63 ce46 9fdc c2c9 05e2 40ae 0acc 8144
00000020: a71a dcb0 0cf7 d822 b0ef 05de 2c2d dd78
00000030: 567f c266 da09 d8f5 10fb 4505 43a4 d158
00000040: 275b f3b4 36ef 183d e4f0 ff83 cc5f 877f
00000050: 6218 0d75 8112 ae81 1224 4130 43e8 cb7f
00000060: 566b 341a 12f0 e425 d027 1487 ae35 8d57
00000070: 7f56 1b17 a1fd d5b8 594b 0d70 7f99 ae13
00000080: 4854 11d0 595d 0be9 d065 5094 ba0d e107
00000090: 1c2a 58f3 db71 4ddf 4216 f97f 55f9 1751
000000a0: e57f fcf1 1279 ef8f f07f 55ea ccb7 01fe
000000b0: 2531 7f08 b65e 6258 ccf4 0d40 230b b8f3
000000c0: c65c f0b1 347f df81 d422 473a e481 7fcd
000000d0: e725 4ad4 11b3 783c 14db f9af 2e7d e507
000000e0: d1ff eeed a8dc b2a0 3d3a 57db 22ce 6bfe
000000f0: b514 2981 f405 2235 c495 04ff d01f 1b5a

tfl.pseudo_qconst17 i1 [1, 7, 1, 32]
-64 -66 -84 -7 45 4 -17 127
-77 -45 56 -22 3 127 106 34
-107 62 -127 12 42 64 -76 -103
-98 70 -100 -58 42 55 -6 27
2 -38 -113 44 -18 -62 -99 45
-14 10 -24 37 -66 12 32 103
-82 59 109 59 -127 127 -117 25
-53 127 -47 -46 42 116 -29 -101
-55 -127 -15 12 -38 15 -71 58
-44 52 127 127 -71 32 -105 -26
-34 19 119 127 4 -61 -127 60
-46 125 -48 -11 67 61 -44 -86
-32 -114 47 -31 -39 42 -50 -4
20 25 120 91 15 -34 -5 -42
-23 -88 29 109 113 -107 -110 -26
-12 115 31 -13 127 22 -35 -100
-78 -45 36 -24 -49 60 -92 100
63 -29 -39 24 -27 64 27 11
73 -66 3 78 44 48 -32 -127
-67 54 121 127 84 -89 -67 -127
-127 -36 3 39 -50 18 -26 70
91 -127 -19 -17 -127 72 -28 -127
105 -88 -35 -25 -93 -49 50 -41
-35 55 127 -47 12 -127 72 -115
-118 -40 -127 127 -127 127 -127 -18
127 -57 -99 3 -113 37 127 -73
127 -127 -10 -80 110 35 9 121
-127 105 -63 -86 38 -104 127 -79
00000000: c0be acf9 2d04 ef7f b3d3 38ea 037f 6a22
00000010: 953e 810c 2a40 b499 9e46 9cc6 2a37 fa1b
00000020: 02da 8f2c eec2 9d2d f20a e825 be0c 2067
00000030: ae3b 6d3b 817f 8b19 cb7f d1d2 2a74 e39b
00000040: c981 f10c da0f b93a d434 7f7f b920 97e6
00000050: de13 777f 04c3 813c d27d d0f5 433d d4aa
00000060: e08e 2fe1 d92a cefc 1419 785b 0fde fbd6
00000070: e9a8 1d6d 7195 92e6 f473 1ff3 7f16 dd9c
00000080: b2d3 24e8 cf3c a464 3fe3 d918 e540 1b0b
00000090: 49be 034e 2c30 e081 bd36 797f 54a7 bd81
000000a0: 81dc 0327 ce12 e646 5b81 edef 8148 e481
000000b0: 69a8 dde7 a3cf 32d7 dd37 7fd1 0c81 488d
000000c0: 8ad8 817f 817f 81ee 7fc7 9d03 8f25 7fb7
000000d0: 7f81 f6b0 6e23 0979 8169 c1aa 2698 7fb1

tfl.pseudo_qconst19 i1 [64, 1, 1, 32]
-9 -2 33 -95 114 66 80 124
-109 -95 53 -60 127 6 114 26
-83 -44 -85 -93 43 18 -16 61
79 9 -50 -27 86 -36 -59 -46
-75 75 7 -36 20 114 39 87
-4 53 7 25 -57 -34 -48 -51
4 2 -15 -75 52 -105 84 -42
79 4 -68 -96 -113 127 10 -2
-91 9 6 68 -24 47 118 35
106 21 105 26 34 41 -51 -46
79 -23 64 -108 -90 48 -46 4
43 -38 30 -38 -68 -13 127 14
33 -44 19 64 23 -59 -57 5
53 54 22 63 11 7 -12 92
-6 29 4 1 13 -67 -1 17
2 -47 -57 127 -12 -44 -22 48
127 -78 8 -35 -74 -55 -60 -25
45 -15 -4 13 -43 -20 32 -3
77 -48 9 79 -8 79 -20 18
-37 68 23 4 10 -114 1 37
-29 54 36 53 -127 -71 111 55
14 124 -15 -46 -53 35 66 24
-12 -24 -32 -35 -48 1 -46 36
-45 -92 -62 24 -23 67 17 76
1 7 -127 3 94 -24 -30 -42
24 -16 61 117 -28 46 -2 80
90 64 44 -55 9 -18 34 64
-26 -17 -36 18 -1 48 28 14
23 14 8 39 34 -13 6 -127
14 30 21 48 8 -22 -68 32
-55 18 14 14 -49 34 7 -10
10 -33 29 42 -17 -19 -14 11
00000000: f7fe 21a1 7242 507c 93a1 35c4 7f06 721a
00000010: add4 aba3 2b12 f03d 4f09 cee5 56dc c5d2
00000020: b54b 07dc 1472 2757 fc35 0719 c7de d0cd
00000030: 0402 f1b5 3497 54d6 4f04 bca0 8f7f 0afe
00000040: a509 0644 e82f 7623 6a15 691a 2229 cdd2
00000050: 4fe9 4094 a630 d204 2bda 1eda bcf3 7f0e
00000060: 21d4 1340 17c5 c705 3536 163f 0b07 f45c
00000070: fa1d 0401 0dbd ff11 02d1 c77f f4d4 ea30
00000080: 7fb2 08dd b6c9 c4e7 2df1 fc0d d5ec 20fd
00000090: 4dd0 094f f84f ec12 db44 1704 0a8e 0125
000000a0: e336 2435 81b9 6f37 0e7c f1d2 cb23 4218
000000b0: f4e8 e0dd d001 d224 d3a4 c218 e943 114c
000000c0: 0107 8103 5ee8 e2d6 18f0 3d75 e42e fe50
000000d0: 5a40 2cc9 09ee 2240 e6ef dc12 ff30 1c0e
000000e0: 170e 0827 22f3 0681 0e1e 1530 08ea bc20
000000f0: c912 0e0e cf22 07f6 0adf 1d2a efed f20b

tfl.pseudo_qconst21 i1 [1, 5, 1, 32]
-29 -64 18 -72 -81 -127 -59 38
-115 73 -127 -24 30 -55 88 127
39 -127 -29 75 87 -2 -21 -43
-111 -16 84 -51 -94 116 127 64
-114 109 22 -65 5 -116 22 88
-59 127 25 -36 -56 -106 101 25
22 -104 97 -26 33 -23 43 -106
-107 -18 -127 -54 -119 104 96 80
-127 115 86 65 -119 73 -89 91
-111 89 -94 -25 65 110 42 46
-127 -1 32 -127 13 -121 -83 -21
14 -117 11 -54 24 127 -33 -34
-117 -127 73 82 -70 -71 -127 106
127 12 29 -127 91 -127 40 32
-87 -20 5 -119 -127 -127 -127 127
100 -127 4 72 -19 55 -30 -63
-96 42 127 127 -127 -1 -101 127
101 24 25 -93 127 -78 -127 63
113 -4 -127 -101 15 -125 -23 -5
127 65 -21 127 127 86 -104 -127
00000000: e3c0 12b8 af81 c526 8d49 81e8 1ec9 587f
00000010: 2781 e34b 57fe ebd5 91f0 54cd a274 7f40
00000020: 8e6d 16bf 058c 1658 c57f 19dc c896 6519
00000030: 1698 61e6 21e9 2b96 95ee 81ca 8968 6050
00000040: 8173 5641 8949 a75b 9159 a2e7 416e 2a2e
00000050: 81ff 2081 0d87 adeb 0e8b 0bca 187f dfde
00000060: 8b81 4952 bab9 816a 7f0c 1d81 5b81 2820
00000070: a9ec 0589 8181 817f 6481 0448 ed37 e2c1
00000080: a02a 7f7f 81ff 9b7f 6518 19a3 7fb2 813f
00000090: 71fc 819b 0f83 e9fb 7f41 eb7f 7f56 9881

tfl.pseudo_qconst23 i1 [32, 5, 1, 40]
79 51 38 -2 16 23 -7 -27
-9 -54 10 -32 -65 -44 -32 -83
-42 -58 -28 -27 -13 32 -55 100
73 65 49 2 12 -40 37 27
33 -37 -7 -20 20 -125 27 8
108 81 99 -21 38 80 33 30
-26 -38 -12 -32 -8 -41 -64 -84
-76 -123 -77 -68 9 54 28 106
52 82 54 16 27 -8 -4 10
68 4 34 -55 52 -125 14 -64
52 8 67 15 41 54 34 51
24 -14 48 -1 -57 -41 12 -62
-51 -99 -82 -26 14 56 44 101
7 76 26 -8 -24 41 16 15
47 34 -4 -42 14 -116 18 -38
82 -7 34 -28 36 53 42 6
-15 -12 -1 -22 -59 -53 -75 -106
-94 -108 -77 -41 2 32 19 125
-5 41 4 34 -49 -3 28 54
87 -8 60 -49 46 -127 46 -69
119 55 -17 -15 26 64 59 13
0 25 23 -29 -48 -53 -37 -118
-28 -107 -6 -25 -35 71 50 66
3 29 3 50 -6 23 5 72
52 26 22 11 27 -79 25 -36
-44 13 30 49 5 17 43 5
14 -5 -19 -9 -30 10 -45 -5
8 -5 -23 -33 -44 -35 -56 -56
6 -47 -36 -92 -46 -15 -50 -63
-55 -37 -39 -96 -64 -24 -32 -23
6 4 10 70 58 1 71 57
63 4 -26 -6 9 -14 28 64
00000000: 4f33 26fe 1017 f9e5 f7ca 0ae0 bfd4 e0ad
00000010: d6c6 e4e5 f320 c964 4941 3102 0cd8 251b
00000020: 21db f9ec 1483 1b08 6c51 63eb 2650 211e
00000030: e6da f4e0 f8d7 c0ac b485 b3bc 0936 1c6a
00000040: 3452 3610 1bf8 fc0a 4404 22c9 3483 0ec0
00000050: 3408 430f 2936 2233 18f2 30ff c7d7 0cc2
00000060: cd9d aee6 0e38 2c65 074c 1af8 e829 100f
00000070: 2f22 fcd6 0e8c 12da 52f9 22e4 2435 2a06
00000080: f1f4 ffea c5cb b596 a294 b3d7 0220 137d
00000090: fb29 0422 cffd 1c36 57f8 3ccf 2e81 2ebb
000000a0: 7737 eff1 1a40 3b0d 0019 17e3 d0cb db8a
000000b0: e495 fae7 dd47 3242 031d 0332 fa17 0548
000000c0: 341a 160b 1bb1 19dc d40d 1e31 0511 2b05
000000d0: 0efb edf7 e20a d3fb 08fb e9df d4dd c8c8
000000e0: 06d1 dca4 d2f1 cec1 c9db d9a0 c0e8 e0e9
000000f0: 0604 0a46 3a01 4739 3f04 e6fa 09f2 1c40

tfl.pseudo_qconst24 i1 [1, 22, 1, 64] scale=0.043804403 zero_point=-128
0.0 0.0 0.0 0.0 0.0 0.0 0.0 0.0
0.0 0.0 0.0 0.0 0.0 0.0 0.0 0.0
0.0 0.0 0.0 0.0 0.0 0.0 0.0 0.0
0.0 0.0 0.0 0.0 0.0 0.0 0.0 0.0
0.0 0.0 0.0 0.0 0.0 0.0 0.0 0.0
0.0 0.0 0.0 0.0 0.0 0.0 0.0 0.0
0.0 0.0 0.0 0.0 0.0 0.0 0.0 0.0
0.0 0.0 0.0 0.0 0.0 0.0 0.0 0.0
0.0 0.0 0.0 0.0 0.0 0.0 0.0 0.0
0.0 0.0 0.0 0.0 0.0 0.0 0.0 0.0
0.0 0.0 0.0 0.0 0.0 0.0 0.0 0.0
0.0 0.0 0.0 0.0 0.0 0.0 0.0 0.0
0.0 0.0 0.0 0.0 0.0 0.0 0.0 0.0
0.0 0.0 0.0 0.0 0.0 0.0 0.0 0.0
0.0 0.0 0.0 0.0 0.0 0.0 0.0 0.0
0.0 0.0 0.0 0.0 0.0 0.0 0.0 0.0
0.0 0.0 0.0 0.0 0.0 0.0 0.0 0.0
0.0 0.0 0.0 0.0 0.0 0.0 0.0 0.0
0.0 0.0 0.0 0.0 0.0 0.0 0.0 0.0
0.0 0.0 0.0 0.0 0.0 0.0 0.0 0.0
0.0 0.0 0.0 0.0 0.0 0.0 0.0 0.0
0.0 0.0 0.0 0.0 0.0 0.0 0.0 0.0
0.0 0.0 0.0 0.0 0.0 0.0 0.0 0.0
0.0 0.0 0.0 0.0 0.0 0.0 0.0 0.0
0.0 0.0 0.0 0.0 0.0 0.0 0.0 0.0
0.0 0.0 0.0 0.0 0.0 0.0 0.0 0.0
0.0 0.0 0.0 0.0 0.0 0.0 0.0 0.0
0.0 0.0 0.0 0.0 0.0 0.0 0.0 0.0
0.0 0.0 0.0 0.0 0.0 0.0 0.0 0.0
0.0 0.0 0.0 0.0 0.0 0.0 0.0 0.0
0.0 0.0 0.0 0.0 0.0 0.0 0.0 0.0
0.0 0.0 0.0 0.0 0.0 0.0 0.0 0.0
00000000: 8080 8080 8080 8080 8080 8080 8080 8080
00000010: 8080 8080 8080 8080 8080 8080 8080 8080
00000020: 8080 8080 8080 8080 8080 8080 8080 8080
00000030: 8080 8080 8080 8080 8080 8080 8080 8080
00000040: 8080 8080 8080 8080 8080 8080 8080 8080
00000050: 8080 8080 8080 8080 8080 8080 8080 8080
00000060: 8080 8080 8080 8080 8080 8080 8080 8080
00000070: 8080 8080 8080 8080 8080 8080 8080 8080
00000080: 8080 8080 8080 8080 8080 8080 8080 8080
00000090: 8080 8080 8080 8080 8080 8080 8080 8080
000000a0: 8080 8080 8080 8080 8080 8080 8080 8080
000000b0: 8080 8080 8080 8080 8080 8080 8080 8080
000000c0: 8080 8080 8080 8080 8080 8080 8080 8080
000000d0: 8080 8080 8080 8080 8080 8080 8080 8080
000000e0: 8080 8080 8080 8080 8080 8080 8080 8080
000000f0: 8080 8080 8080 8080 8080 8080 8080 8080

tfl.pseudo_qconst25 i1 [1, 36, 1, 64] scale=0.026309188 zero_point=-128
0.0 0.0 0.0 0.0 0.0 0.0 0.0 0.0
0.0 0.0 0.0 0.0 0.0 0.0 0.0 0.0
0.0 0.0 0.0 0.0 0.0 0.0 0.0 0.0
0.0 0.0 0.0 0.0 0.0 0.0 0.0 0.0
0.0 0.0 0.0 0.0 0.0 0.0 0.0 0.0
0.0 0.0 0.0 0.0 0.0 0.0 0.0 0.0
0.0 0.0 0.0 0.0 0.0 0.0 0.0 0.0
0.0 0.0 0.0 0.0 0.0 0.0 0.0 0.0
0.0 0.0 0.0 0.0 0.0 0.0 0.0 0.0
0.0 0.0 0.0 0.0 0.0 0.0 0.0 0.0
0.0 0.0 0.0 0.0 0.0 0.0 0.0 0.0
0.0 0.0 0.0 0.0 0.0 0.0 0.0 0.0
0.0 0.0 0.0 0.0 0.0 0.0 0.0 0.0
0.0 0.0 0.0 0.0 0.0 0.0 0.0 0.0
0.0 0.0 0.0 0.0 0.0 0.0 0.0 0.0
0.0 0.0 0.0 0.0 0.0 0.0 0.0 0.0
0.0 0.0 0.0 0.0 0.0 0.0 0.0 0.0
0.0 0.0 0.0 0.0 0.0 0.0 0.0 0.0
0.0 0.0 0.0 0.0 0.0 0.0 0.0 0.0
0.0 0.0 0.0 0.0 0.0 0.0 0.0 0.0
0.0 0.0 0.0 0.0 0.0 0.0 0.0 0.0
0.0 0.0 0.0 0.0 0.0 0.0 0.0 0.0
0.0 0.0 0.0 0.0 0.0 0.0 0.0 0.0
0.0 0.0 0.0 0.0 0.0 0.0 0.0 0.0
0.0 0.0 0.0 0.0 0.0 0.0 0.0 0.0
0.0 0.0 0.0 0.0 0.0 0.0 0.0 0.0
0.0 0.0 0.0 0.0 0.0 0.0 0.0 0.0
0.0 0.0 0.0 0.0 0.0 0.0 0.0 0.0
0.0 0.0 0.0 0.0 0.0 0.0 0.0 0.0
0.0 0.0 0.0 0.0 0.0 0.0 0.0 0.0
0.0 0.0 0.0 0.0 0.0 0.0 0.0 0.0
0.0 0.0 0.0 0.0 0.0 0.0 0.0 0.0
00000000: 8080 8080 8080 8080 8080 8080 8080 8080
00000010: 8080 8080 8080 8080 8080 8080 8080 8080
00000020: 8080 8080 8080 8080 8080 8080 8080 8080
00000030: 8080 8080 8080 8080 8080 8080 8080 8080
00000040: 8080 8080 8080 8080 8080 8080 8080 8080
00000050: 8080 8080 8080 8080 8080 8080 8080 8080
00000060: 8080 8080 8080 8080 8080 8080 8080 8080
00000070: 8080 8080 8080 8080 8080 8080 8080 8080
00000080: 8080 8080 8080 8080 8080 8080 8080 8080
00000090: 8080 8080 8080 8080 8080 8080 8080 8080
000000a0: 8080 8080 8080 8080 8080 8080 8080 8080
000000b0: 8080 8080 8080 8080 8080 8080 8080 8080
000000c0: 8080 8080 8080 8080 8080 8080 8080 8080
000000d0: 8080 8080 8080 8080 8080 8080 8080 8080
000000e0: 8080 8080 8080 8080 8080 8080 8080 8080
000000f0: 8080 8080 8080 8080 8080 8080 8080 8080

tfl.pseudo_qconst26 i1 [1, 3, 1, 40] scale=0.101960786 zero_point=-128
0.0 0.0 0.0 0.0 0.0 0.0 0.0 0.0
0.0 0.0 0.0 0.0 0.0 0.0 0.0 0.0
0.0 0.0 0.0 0.0 0.0 0.0 0.0 0.0
0.0 0.0 0.0 0.0 0.0 0.0 0.0 0.0
0.0 0.0 0.0 0.0 0.0 0.0 0.0 0.0
0.0 0.0 0.0 0.0 0.0 0.0 0.0 0.0
0.0 0.0 0.0 0.0 0.0 0.0 0.0 0.0
0.0 0.0 0.0 0.0 0.0 0.0 0.0 0.0
0.0 0.0 0.0 0.0 0.0 0.0 0.0 0.0
0.0 0.0 0.0 0.0 0.0 0.0 0.0 0.0
0.0 0.0 0.0 0.0 0.0 0.0 0.0 0.0
0.0 0.0 0.0 0.0 0.0 0.0 0.0 0.0
0.0 0.0 0.0 0.0 0.0 0.0 0.0 0.0
0.0 0.0 0.0 0.0 0.0 0.0 0.0 0.0
0.0 0.0 0.0 0.0 0.0 0.0 0.0 0.0
00000000: 8080 8080 8080 8080 8080 8080 8080 8080
00000010: 8080 8080 8080 8080 8080 8080 8080 8080
00000020: 8080 8080 8080 8080 8080 8080 8080 8080
00000030: 8080 8080 8080 8080 8080 8080 8080 8080
00000040: 8080 8080 8080 8080 8080 8080 8080 8080
00000050: 8080 8080 8080 8080 8080 8080 8080 8080
00000060: 8080 8080 8080 8080 8080 8080 8080 8080
00000070: 8080 8080 8080 8080

tfl.pseudo_qconst27 i1 [1, 4, 1, 32] scale=1.1343012 zero_point=-128
0.0 0.0 0.0 0.0 0.0 0.0 0.0 0.0
0.0 0.0 0.0 0.0 0.0 0.0 0.0 0.0
0.0 0.0 0.0 0.0 0.0 0.0 0.0 0.0
0.0 0.0 0.0 0.0 0.0 0.0 0.0 0.0
0.0 0.0 0.0 0.0 0.0 0.0 0.0 0.0
0.0 0.0 0.0 0.0 0.0 0.0 0.0 0.0
0.0 0.0 0.0 0.0 0.0 0.0 0.0 0.0
0.0 0.0 0.0 0.0 0.0 0.0 0.0 0.0
0.0 0.0 0.0 0.0 0.0 0.0 0.0 0.0
0.0 0.0 0.0 0.0 0.0 0.0 0.0 0.0
0.0 0.0 0.0 0.0 0.0 0.0 0.0 0.0
0.0 0.0 0.0 0.0 0.0 0.0 0.0 0.0
0.0 0.0 0.0 0.0 0.0 0.0 0.0 0.0
0.0 0.0 0.0 0.0 0.0 0.0 0.0 0.0
0.0 0.0 0.0 0.0 0.0 0.0 0.0 0.0
0.0 0.0 0.0 0.0 0.0 0.0 0.0 0.0
00000000: 8080 8080 8080 8080 8080 8080 8080 8080
00000010: 8080 8080 8080 8080 8080 8080 8080 8080
00000020: 8080 8080 8080 8080 8080 8080 8080 8080
00000030: 8080 8080 8080 8080 8080 8080 8080 8080
00000040: 8080 8080 8080 8080 8080 8080 8080 8080
00000050: 8080 8080 8080 8080 8080 8080 8080 8080
00000060: 8080 8080 8080 8080 8080 8080 8080 8080
00000070: 8080 8080 8080 8080 8080 8080 8080 8080

tfl.pseudo_qconst28 i1 [1, 10, 1, 64] scale=0.05782401 zero_point=-128
0.0 0.0 0.0 0.0 0.0 0.0 0.0 0.0
0.0 0.0 0.0 0.0 0.0 0.0 0.0 0.0
0.0 0.0 0.0 0.0 0.0 0.0 0.0 0.0
0.0 0.0 0.0 0.0 0.0 0.0 0.0 0.0
0.0 0.0 0.0 0.0 0.0 0.0 0.0 0.0
0.0 0.0 0.0 0.0 0.0 0.0 0.0 0.0
0.0 0.0 0.0 0.0 0.0 0.0 0.0 0.0
0.0 0.0 0.0 0.0 0.0 0.0 0.0 0.0
0.0 0.0 0.0 0.0 0.0 0.0 0.0 0.0
0.0 0.0 0.0 0.0 0.0 0.0 0.0 0.0
0.0 0.0 0.0 0.0 0.0 0.0 0.0 0.0
0.0 0.0 0.0 0.0 0.0 0.0 0.0 0.0
0.0 0.0 0.0 0.0 0.0 0.0 0.0 0.0
0.0 0.0 0.0 0.0 0.0 0.0 0.0 0.0
0.0 0.0 0.0 0.0 0.0 0.0 0.0 0.0
0.0 0.0 0.0 0.0 0.0 0.0 0.0 0.0
0.0 0.0 0.0 0.0 0.0 0.0 0.0 0.0
0.0 0.0 0.0 0.0 0.0 0.0 0.0 0.0
0.0 0.0 0.0 0.0 0.0 0.0 0.0 0.0
0.0 0.0 0.0 0.0 0.0 0.0 0.0 0.0
0.0 0.0 0.0 0.0 0.0 0.0 0.0 0.0
0.0 0.0 0.0 0.0 0.0 0.0 0.0 0.0
0.0 0.0 0.0 0.0 0.0 0.0 0.0 0.0
0.0 0.0 0.0 0.0 0.0 0.0 0.0 0.0
0.0 0.0 0.0 0.0 0.0 0.0 0.0 0.0
0.0 0.0 0.0 0.0 0.0 0.0 0.0 0.0
0.0 0.0 0.0 0.0 0.0 0.0 0.0 0.0
0.0 0.0 0.0 0.0 0.0 0.0 0.0 0.0
0.0 0.0 0.0 0.0 0.0 0.0 0.0 0.0
0.0 0.0 0.0 0.0 0.0 0.0 0.0 0.0
0.0 0.0 0.0 0.0 0.0 0.0 0.0 0.0
0.0 0.0 0.0 0.0 0.0 0.0 0.0 0.0
00000000: 8080 8080 8080 8080 8080 8080 8080 8080
00000010: 8080 8080 8080 8080 8080 8080 8080 8080
00000020: 8080 8080 8080 8080 8080 8080 8080 8080
00000030: 8080 8080 8080 8080 8080 8080 8080 8080
00000040: 8080 8080 8080 8080 8080 8080 8080 8080
00000050: 8080 8080 8080 8080 8080 8080 8080 8080
00000060: 8080 8080 8080 8080 8080 8080 8080 8080
00000070: 8080 8080 8080 8080 8080 8080 8080 8080
00000080: 8080 8080 8080 8080 8080 8080 8080 8080
00000090: 8080 8080 8080 8080 8080 8080 8080 8080
000000a0: 8080 8080 8080 8080 8080 8080 8080 8080
000000b0: 8080 8080 8080 8080 8080 8080 8080 8080
000000c0: 8080 8080 8080 8080 8080 8080 8080 8080
000000d0: 8080 8080 8080 8080 8080 8080 8080 8080
000000e0: 8080 8080 8080 8080 8080 8080 8080 8080
000000f0: 8080 8080 8080 8080 8080 8080 8080 8080

tfl.pseudo_qconst29 i1 [1, 14, 1, 64] scale=0.046520896 zero_point=-128
0.0 0.0 0.0 0.0 0.0 0.0 0.0 0.0
0.0 0.0 0.0 0.0 0.0 0.0 0.0 0.0
0.0 0.0 0.0 0.0 0.0 0.0 0.0 0.0
0.0 0.0 0.0 0.0 0.0 0.0 0.0 0.0
0.0 0.0 0.0 0.0 0.0 0.0 0.0 0.0
0.0 0.0 0.0 0.0 0.0 0.0 0.0 0.0
0.0 0.0 0.0 0.0 0.0 0.0 0.0 0.0
0.0 0.0 0.0 0.0 0.0 0.0 0.0 0.0
0.0 0.0 0.0 0.0 0.0 0.0 0.0 0.0
0.0 0.0 0.0 0.0 0.0 0.0 0.0 0.0
0.0 0.0 0.0 0.0 0.0 0.0 0.0 0.0
0.0 0.0 0.0 0.0 0.0 0.0 0.0 0.0
0.0 0.0 0.0 0.0 0.0 0.0 0.0 0.0
0.0 0.0 0.0 0.0 0.0 0.0 0.0 0.0
0.0 0.0 0.0 0.0 0.0 0.0 0.0 0.0
0.0 0.0 0.0 0.0 0.0 0.0 0.0 0.0
0.0 0.0 0.0 0.0 0.0 0.0 0.0 0.0
0.0 0.0 0.0 0.0 0.0 0.0 0.0 0.0
0.0 0.0 0.0 0.0 0.0 0.0 0.0 0.0
0.0 0.0 0.0 0.0 0.0 0.0 0.0 0.0
0.0 0.0 0.0 0.0 0.0 0.0 0.0 0.0
0.0 0.0 0.0 0.0 0.0 0.0 0.0 0.0
0.0 0.0 0.0 0.0 0.0 0.0 0.0 0.0
0.0 0.0 0.0 0.0 0.0 0.0 0.0 0.0
0.0 0.0 0.0 0.0 0.0 0.0 0.0 0.0
0.0 0.0 0.0 0.0 0.0 0.0 0.0 0.0
0.0 0.0 0.0 0.0 0.0 0.0 0.0 0.0
0.0 0.0 0.0 0.0 0.0 0.0 0.0 0.0
0.0 0.0 0.0 0.0 0.0 0.0 0.0 0.0
0.0 0.0 0.0 0.0 0.0 0.0 0.0 0.0
0.0 0.0 0.0 0.0 0.0 0.0 0.0 0.0
0.0 0.0 0.0 0.0 0.0 0.0 0.0 0.0
00000000: 8080 8080 8080 8080 8080 8080 8080 8080
00000010: 8080 8080 8080 8080 8080 8080 8080 8080
00000020: 8080 8080 8080 8080 8080 8080 8080 8080
00000030: 8080 8080 8080 8080 8080 8080 8080 8080
00000040: 8080 8080 8080 8080 8080 8080 8080 8080
00000050: 8080 8080 8080 8080 8080 8080 8080 8080
00000060: 8080 8080 8080 8080 8080 8080 8080 8080
00000070: 8080 8080 8080 8080 8080 8080 8080 8080
00000080: 8080 8080 8080 8080 8080 8080 8080 8080
00000090: 8080 8080 8080 8080 8080 8080 8080 8080
000000a0: 8080 8080 8080 8080 8080 8080 8080 8080
000000b0: 8080 8080 8080 8080 8080 8080 8080 8080
000000c0: 8080 8080 8080 8080 8080 8080 8080 8080
000000d0: 8080 8080 8080 8080 8080 8080 8080 8080
000000e0: 8080 8080 8080 8080 8080 8080 8080 8080
000000f0: 8080 8080 8080 8080 8080 8080 8080 8080
