models/yo_bitch.tflite (tflite, 63544 bytes, 18 tensors)

tfl.pseudo_qconst1 i1 [1, 2368] scale=0.005073319 zero_point=0
000000 e7 f2 ed f6 1e fd 20 fc e6 03 d9 f3 bb e7 e0 03
       -0.12683298 -0.07102647 -0.09639306 -0.050733194 0.15219958 -0.015219958 0.16234621 -0.020293277 -0.1319063 0.015219958 -0.19785945 -0.06595315 -0.35005903 -0.12683298 -0.16234621 0.015219958
000010 e4 3f 00 e3 a0 1a fc ee fe e6 24 de d3 e2 c1 da
       -0.14205293 0.31961912 0.0 -0.14712626 -0.48703864 0.1319063 -0.020293277 -0.09131975 -0.010146638 -0.1319063 0.1826395 -0.17249285 -0.22829936 -0.15219958 -0.31961912 -0.19278613
000020 ec 0a c0 d0 ef ca ea ec d6 e3 e8 0b eb ec c7 3d
       -0.10146639 0.050733194 -0.32469243 -0.24351932 -0.08624642 -0.27395925 -0.11161302 -0.10146639 -0.21307941 -0.14712626 -0.12175966 0.05580651 -0.106539704 -0.10146639 -0.2891792 0.30947247
000030 dd cf bd f7 e7 b6 b0 d8 ce 00 1c 07 0c 4e c3 c6
       -0.17756617 -0.24859264 -0.33991238 -0.045659874 -0.12683298 -0.3754256 -0.40586555 -0.20293278 -0.25366595 0.0 0.14205293 0.035513233 0.06087983 0.3957189 -0.30947247 -0.2942525
000040 f6 fe 04 f8 27 01 19 e0 ff f9 f2 f7 d3 ea f5 fa
       -0.050733194 -0.010146638 0.020293277 -0.040586554 0.19785945 0.005073319 0.12683298 -0.16234621 -0.005073319 -0.035513233 -0.07102647 -0.045659874 -0.22829936 -0.11161302 -0.05580651 -0.030439915
000050 d5 20 fe dc c0 01 f7 00 07 f3 22 ec ed fd e9 ff
       -0.21815273 0.16234621 -0.010146638 -0.1826395 -0.32469243 0.005073319 -0.045659874 0.0 0.035513233 -0.06595315 0.17249285 -0.10146639 -0.09639306 -0.015219958 -0.116686344 -0.005073319
000060 f6 07 f0 e7 04 e8 eb da eb e4 f6 06 f6 e8 e3 2e
       -0.050733194 0.035513233 -0.08117311 -0.12683298 0.020293277 -0.12175966 -0.106539704 -0.19278613 -0.106539704 -0.14205293 -0.050733194 0.030439915 -0.050733194 -0.12175966 -0.14712626 0.23337269
000070 fb ec d9 fb f3 d6 b8 f7 ea 04 1f 15 07 3a df e3
       -0.025366597 -0.10146639 -0.19785945 -0.025366597 -0.06595315 -0.21307941 -0.365279 -0.045659874 -0.11161302 0.020293277 0.15727289 0.106539704 0.035513233 0.2942525 -0.16741954 -0.14712626
000080 ed ef 0e ed 23 ff 11 e9 f3 07 ee ff f4 f4 fc f7
       -0.09639306 -0.08624642 0.07102647 -0.09639306 0.17756617 -0.005073319 0.08624642 -0.116686344 -0.06595315 0.035513233 -0.09131975 -0.005073319 -0.06087983 -0.06087983 -0.020293277 -0.045659874
000090 d9 21 fb da e6 f3 fd 08 00 f6 02 f1 fa f7 fd fe
       -0.19785945 0.16741954 -0.025366597 -0.19278613 -0.1319063 -0.06595315 -0.015219958 0.040586554 0.0 -0.050733194 0.010146638 -0.07609979 -0.030439915 -0.045659874 -0.015219958 -0.010146638
0000a0 e7 0b fc 02 18 fe fa ff f1 ea 03 04 06 f6 e8 24
       -0.12683298 0.05580651 -0.020293277 0.010146638 0.12175966 -0.010146638 -0.030439915 -0.005073319 -0.07609979 -0.11161302 0.015219958 0.020293277 0.030439915 -0.050733194 -0.12175966 0.1826395
0000b0 fd ec f6 f8 ed f5 b8 fb f0 05 14 14 fc 22 e5 00
       -0.015219958 -0.10146639 -0.050733194 -0.040586554 -0.09639306 -0.05580651 -0.365279 -0.025366597 -0.08117311 0.025366597 0.10146639 0.10146639 -0.020293277 0.17249285 -0.13697962 0.0
0000c0 ea fc 12 fb 20 02 f7 e2 05 f6 de fb fb f4 fb f4
       -0.11161302 -0.020293277 0.09131975 -0.025366597 0.16234621 0.010146638 -0.045659874 -0.15219958 0.025366597 -0.050733194 -0.17249285 -0.025366597 -0.025366597 -0.06087983 -0.025366597 -0.06087983
0000d0 d6 1d de e9 f6 fb f8 f6 05 05 f7 ee 05 06 0d fd
       -0.21307941 0.14712626 -0.17249285 -0.116686344 -0.050733194 -0.025366597 -0.040586554 -0.050733194 0.025366597 0.025366597 -0.045659874 -0.09131975 0.025366597 0.030439915 0.06595315 -0.015219958
0000e0 e3 05 f2 f3 17 fd f5 15 f7 00 02 f7 07 ee f0 22
       -0.14712626 0.025366597 -0.07102647 -0.06595315 0.116686344 -0.015219958 -0.05580651 0.106539704 -0.045659874 0.0 0.010146638 -0.045659874 0.035513233 -0.09131975 -0.08117311 0.17249285
0000f0 10 02 fa 05 e9 0f c0 fa ec fa 0b 18 f8 13 ed 0d
       0.08117311 0.010146638 -0.030439915 0.025366597 -0.116686344 0.07609979 -0.32469243 -0.030439915 -0.10146639 -0.030439915 0.05580651 0.12175966 -0.040586554 0.09639306 -0.09639306 0.06595315

tfl.pseudo_qconst3 i1 [64, 1, 1, 64]
000000 e9 f0 dc d4 ca 0c f3 09 fd cf 27 fe 3f f8 0e e4
       -23 -16 -36 -44 -54 12 -13 9 -3 -49 39 -2 63 -8 14 -28
000010 00 31 f7 a8 bc 08 d0 16 1d e3 d8 1b 0c b7 2b d4
       0 49 -9 -88 -68 8 -48 22 29 -29 -40 27 12 -73 43 -44
000020 1c 0d 48 f7 12 ce e1 f8 dc a9 4c f4 05 d4 e1 05
       28 13 72 -9 18 -50 -31 -8 -36 -87 76 -12 5 -44 -31 5
000030 1a 00 cc e8 1e 22 0f b3 18 49 11 f9 25 81 47 c1
       26 0 -52 -24 30 34 15 -77 24 73 17 -7 37 -127 71 -63
000040 d9 06 81 08 f9 6e f3 45 14 05 22 3a 12 f4 d0 c4
       -39 6 -127 8 -7 110 -13 69 20 5 34 58 18 -12 -48 -60
000050 1a de 02 48 14 3b f8 39 e3 3f ef ec fa 67 06 16
       26 -34 2 72 20 59 -8 57 -29 63 -17 -20 -6 103 6 22
000060 dc fd f9 02 1a e9 13 af 1b a5 d6 10 18 4d 3e c2
       -36 -3 -7 2 26 -23 19 -81 27 -91 -42 16 24 77 62 -62
000070 62 b1 1e 4e f3 eb 14 21 d7 e5 fb d9 21 e7 c8 c6
       98 -79 30 78 -13 -21 20 33 -41 -27 -5 -39 33 -25 -56 -58
000080 fb fd d3 a5 0e 3e 1b fd cc 14 43 63 08 e2 ec 64
       -5 -3 -45 -91 14 62 27 -3 -52 20 67 99 8 -30 -20 100
000090 4a 08 bd 07 13 ed f8 dd b2 f0 00 b5 f5 ff 0d 4d
       74 8 -67 7 19 -19 -8 -35 -78 -16 0 -75 -11 -1 13 77
0000a0 d5 81 ed b7 bf 11 83 0d 02 f7 d8 5a 14 fb b3 bb
       -43 -127 -19 -73 -65 17 -125 13 2 -9 -40 90 20 -5 -77 -69
0000b0 cb 24 d2 d3 5b 40 b8 bd 24 94 a8 cf df f9 ef 96
       -53 36 -46 -45 91 64 -72 -67 36 -108 -88 -49 -33 -7 -17 -106
0000c0 e1 eb 24 81 16 4c e8 f4 f9 0a f2 48 0c fc e5 09
       -31 -21 36 -127 22 76 -24 -12 -7 10 -14 72 12 -4 -27 9
0000d0 38 32 02 0b ac ca ef f0 2d d8 0f e7 50 b3 15 39
       56 50 2 11 -84 -54 -17 -16 45 -40 15 -25 80 -77 21 57
0000e0 ce b4 0a fc fa 0f 0a 00 f5 ce 5a d0 3b d2 14 d3
       -50 -76 10 -4 -6 15 10 0 -11 -50 90 -48 59 -46 20 -45
0000f0 f9 1d c7 0a 78 f0 1d f5 f3 03 c9 f9 31 d5 0f ae
       -7 29 -57 10 120 -16 29 -11 -13 3 -55 -7 49 -43 15 -82

tfl.pseudo_qconst5 i1 [1, 23, 1, 64]
000000 7f d3 f8 e1 7f 81 34 56 21 dc 1d 7d 10 26 81 7f
       127 -45 -8 -31 127 -127 52 86 33 -36 29 125 16 38 -127 127
000010 d6 44 6d 60 36 9d bd ea 81 40 1f 2f de 55 95 02
       -42 68 109 96 54 -99 -67 -22 -127 64 31 47 -34 85 -107 2
000020 5d 7a c8 e7 18 7f 81 7f b1 ab 10 d4 ea 7f f4 fb
       93 122 -56 -25 24 127 -127 127 -79 -85 16 -44 -22 127 -12 -5
000030 5e 81 7f 5a 9d e5 35 da 7f 18 2c cb 5a 20 bb b8
       94 -127 127 90 -99 -27 53 -38 127 24 44 -53 90 32 -69 -72
000040 47 c9 ec ed 2e a5 6d 57 e2 dd 41 7d f7 2a 96 57
       71 -55 -20 -19 46 -91 109 87 -30 -35 65 125 -9 42 -106 87
000050 e7 19 7f 3c 27 81 b1 f4 bb 0d 3c 23 e2 43 81 f5
       -25 25 127 60 39 -127 -79 -12 -69 13 60 35 -30 67 -127 -11
000060 1d 7f b8 b5 d1 47 95 5e ec a0 05 bb b0 52 fc 07
       29 127 -72 -75 -47 71 -107 94 -20 -96 5 -69 -80 82 -4 7
000070 5a b3 79 64 ab fa f0 f4 62 10 43 a0 62 27 f0 cb
       90 -77 121 100 -85 -6 -16 -12 98 16 67 -96 98 39 -16 -53
000080 39 d4 fc f4 24 a0 60 76 ec 11 05 55 06 4f d4 79
       57 -44 -4 -12 36 -96 96 118 -20 17 5 85 6 79 -44 121
000090 f0 12 66 c3 16 98 c1 e4 e0 d5 6a 49 d3 0c b1 f6
       -16 18 102 -61 22 -104 -63 -28 -32 -43 106 73 -45 12 -79 -10
0000a0 58 5a c7 b0 ef 3d bb 66 ee c9 1a c9 b2 37 ec 15
       88 90 -57 -80 -17 61 -69 102 -18 -55 26 -55 -78 55 -20 21
0000b0 27 e9 4a 74 97 01 e7 ea 59 0a 57 d9 29 24 38 e9
       39 -23 74 116 -105 1 -25 -22 89 10 87 -39 41 36 56 -23
0000c0 3e d2 17 0f e6 9f 1e 7f 11 53 fe 58 f0 78 e9 51
       62 -46 23 15 -26 -97 30 127 17 83 -2 88 -16 120 -23 81
0000d0 ec e4 49 81 18 d2 d7 cb cc f0 32 aa fc d0 c8 00
       -20 -28 73 -127 24 -46 -41 -53 -52 -16 50 -86 -4 -48 -56 0
0000e0 36 4e a3 18 eb 26 e0 4c 16 f9 36 e5 cb 36 f3 19
       54 78 -93 24 -21 38 -32 76 22 -7 54 -27 -53 54 -13 25
0000f0 06 fc 11 19 a2 ff cd f9 43 fa 4e 4e f1 20 5e 04
       6 -4 17 25 -94 -1 -51 -7 67 -6 78 78 -15 32 94 4

tfl.pseudo_qconst7 i1 [64, 1, 1, 64]
000000 0f ea de e2 ab 2d 2b 04 02 da fa 08 d8 07 de f7
       15 -22 -34 -30 -85 45 43 4 2 -38 -6 8 -40 7 -34 -9
000010 1a 2a 0f 09 1e a9 1e e3 81 dd d5 05 32 b9 12 c2
       26 42 15 9 30 -87 30 -29 -127 -35 -43 5 50 -71 18 -62
000020 04 03 95 a7 a9 4a 21 85 cc 4e 11 05 36 11 ef 1f
       4 3 -107 -89 -87 74 33 -123 -52 78 17 5 54 17 -17 31
000030 e1 39 3b 29 5a 4f d1 d6 52 03 df d2 d2 82 ad eb
       -31 57 59 41 90 79 -47 -42 82 3 -33 -46 -46 -126 -83 -21
000040 46 ca 22 30 3e 2a e5 81 6c f3 0c a3 e8 11 29 c9
       70 -54 34 48 62 42 -27 -127 108 -13 12 -93 -24 17 41 -55
000050 c5 0b 07 df 31 30 ee 08 2b 50 f0 cf fa 35 cd da
       -59 11 7 -33 49 48 -18 8 43 80 -16 -49 -6 53 -51 -38
000060 25 e0 d6 2f 48 05 f4 3e 4a a3 df b2 56 1e c3 24
       37 -32 -42 47 72 5 -12 62 74 -93 -33 -78 86 30 -61 36
000070 e3 fa 2f 2c 07 b4 ff 0f fd 3b a2 04 18 20 0a 5c
       -29 -6 47 44 7 -76 -1 15 -3 59 -94 4 24 32 10 92
000080 18 3b fe 30 c0 28 c2 fc cd 08 17 ce 01 23 ba 12
       24 59 -2 48 -64 40 -62 -4 -51 8 23 -50 1 35 -70 18
000090 27 b2 e7 c7 d6 d3 12 cd f4 fc df 0f 2b 3d 33 e4
       39 -78 -25 -57 -42 -45 18 -51 -12 -4 -33 15 43 61 51 -28
0000a0 e9 33 00 e4 7f 08 0f d4 b5 f9 01 07 ea 93 0f f2
       -23 51 0 -28 127 8 15 -44 -75 -7 1 7 -22 -109 15 -14
0000b0 1e 07 f0 17 e4 0d 2c 03 cf 48 11 f8 cc 05 16 4f
       30 7 -16 23 -28 13 44 3 -49 72 17 -8 -52 5 22 79
0000c0 cc b0 0b fe 12 b3 ec 0b f1 cc 4b 98 fd 10 4d 05
       -52 -80 11 -2 18 -77 -20 11 -15 -52 75 -104 -3 16 77 5
0000d0 1d 08 02 ec f6 d8 ce 08 07 45 b0 3f 2e df 1e ed
       29 8 2 -20 -10 -40 -50 8 7 69 -80 63 46 -33 30 -19
0000e0 0e fc 20 b7 dd 38 ff da 9f cd 05 1b e8 7f 1c 04
       14 -4 32 -73 -35 56 -1 -38 -97 -51 5 27 -24 127 28 4
0000f0 37 ff da f8 04 ea 03 07 c4 0f 12 22 20 38 00 2e
       55 -1 -38 -8 4 -22 3 7 -60 15 18 34 32 56 0 46

tfl.pseudo_qconst9 i1 [1, 15, 1, 32]
000000 55 98 3e 81 2e 81 f8 48 bc 21 81 87 7f 4b de 18
       85 -104 62 -127 46 -127 -8 72 -68 33 -127 -121 127 75 -34 24
000010 52 d4 e4 dc 6d 81 7f c8 25 81 e7 7f 7f 81 45 6c
       82 -44 -28 -36 109 -127 127 -56 37 -127 -25 127 127 -127 69 108
000020 d1 9b 5c 95 3f 84 0d 4a e5 2f bb b3 7e 18 2a 29
       -47 -101 92 -107 63 -124 13 74 -27 47 -69 -77 126 24 42 41
000030 71 f4 06 0e 41 b2 49 00 e6 9d e5 64 56 b6 34 60
       113 -12 6 14 65 -78 73 0 -26 -99 -27 100 86 -74 52 96
000040 9a c2 05 e6 2d ab 3d 29 06 0c d2 86 4d 18 4f 09
       -102 -62 5 -26 45 -85 61 41 6 12 -46 -122 77 24 79 9
000050 56 fa 18 c9 7f bf 5c fe ef ed b2 3b 1a cd 0b 63
       86 -6 24 -55 127 -65 92 -2 -17 -19 -78 59 26 -51 11 99
000060 8c e2 eb 06 e8 a7 5a 55 01 14 c8 81 76 13 2f 03
       -116 -30 -21 6 -24 -89 90 85 1 20 -56 -127 118 19 47 3
000070 ed f7 0a e9 72 03 51 75 1f 94 9d 42 ff d9 ef 54
       -19 -9 10 -23 114 3 81 117 31 -108 -99 66 -1 -39 -17 84
000080 8f cc 26 fb e2 9a 4c 25 e3 4c f6 cd 7c e8 d6 11
       -113 -52 38 -5 -30 -102 76 37 -29 76 -10 -51 124 -24 -42 17
000090 e1 0e c6 cd 7f f4 45 7f 5e 85 a9 1c 06 e5 ff 4a
       -31 14 -58 -51 127 -12 69 127 94 -123 -87 28 6 -27 -1 74
0000a0 be 26 00 d6 d1 bb 21 55 d5 2a 08 85 7e 16 f2 0d
       -66 38 0 -42 -47 -69 33 85 -43 42 8 -123 126 22 -14 13
0000b0 08 2b e7 ec 41 eb 2c 63 73 95 a3 07 1d f1 df 24
       8 43 -25 -20 65 -21 44 99 115 -107 -93 7 29 -15 -33 36
0000c0 81 1e 05 dd e5 e0 bd 76 dd 38 dc b3 6a 30 e1 4b
       -127 30 5 -35 -27 -32 -67 118 -35 56 -36 -77 106 48 -31 75
0000d0 38 35 f0 0a 17 11 0e 1c 7f d3 cd e4 00 f1 b7 e1
       56 53 -16 10 23 17 14 28 127 -45 -51 -28 0 -15 -73 -31
0000e0 c8 5a 06 cf f4 44 81 7f c8 14 f1 b0 1d 5b f6 61
       -56 90 6 -49 -12 68 -127 127 -56 20 -15 -80 29 91 -10 97
0000f0 70 7f bf 0b 20 07 25 08 6a 8d bd 09 f5 07 9f ea
       112 127 -65 11 32 7 37 8 106 -115 -67 9 -11 7 -97 -22

tfl.pseudo_qconst11 i1 [1, 9, 1, 32]
000000 8b c1 0c 3a 12 d1 13 bd f7 e8 81 4d 7f b0 fc 7f
       -117 -63 12 58 18 -47 19 -67 -9 -24 -127 77 127 -80 -4 127
000010 b2 25 73 ed d7 0c df d8 2e f0 0a a0 d3 7f 9a 9f
       -78 37 115 -19 -41 12 -33 -40 46 -16 10 -96 -45 127 -102 -97
000020 99 02 dc 53 03 8a 7f da fa 9a 9d 5a 70 c5 cc 33
       -103 2 -36 83 3 -118 127 -38 -6 -102 -99 90 112 -59 -52 51
000030 a6 39 f1 11 81 28 0a 22 34 08 28 fd 81 3d 95 5a
       -90 57 -15 17 -127 40 10 34 52 8 40 -3 -127 61 -107 90
000040 e1 16 3e 7f fa 81 5e 24 ff af 03 5d e3 81 03 5d
       -31 22 62 127 -6 -127 94 36 -1 -81 3 93 -29 -127 3 93
000050 85 99 e4 5d f5 23 55 38 f4 06 db ea 90 65 d4 8c
       -123 -103 -28 93 -11 35 85 56 -12 6 -37 -22 -112 101 -44 -116
000060 94 ea 12 68 04 91 50 1b f6 e0 f4 57 4f ce cf 2a
       -108 -22 18 104 4 -111 80 27 -10 -32 -12 87 79 -50 -49 42
000070 89 81 f6 4a b0 23 49 eb 02 ff 39 6f db ef bf ba
       -119 -127 -10 74 -80 35 73 -21 2 -1 57 111 -37 -17 -65 -70
000080 ec 7f 51 d7 e7 e6 5c 3c fa dc 03 36 8b c6 be 55
       -20 127 81 -41 -25 -26 92 60 -6 -36 3 54 -117 -58 -66 85
000090 a4 ed 81 e7 b8 25 db 43 1c db 19 29 a4 e3 d6 a5
       -92 -19 -127 -25 -72 37 -37 67 28 -37 25 41 -92 -29 -42 -91
0000a0 e5 29 0b 9e eb df 5b 2c d6 fd 9a 7f 89 81 bb 4e
       -27 41 11 -98 -21 -33 91 44 -42 -3 -102 127 -119 -127 -69 78
0000b0 81 b7 d4 db 03 0b 9d f9 e8 be f3 0b eb 06 81 13
       -127 -73 -44 -37 3 11 -99 -7 -24 -66 -13 11 -21 6 -127 19
0000c0 97 58 d2 8c d9 77 53 67 be 51 b3 4d d9 d3 a4 57
       -105 88 -46 -116 -39 119 83 103 -66 81 -77 77 -39 -45 -92 87
0000d0 bd c2 cc 6f b4 3f 81 40 07 d0 47 ec a3 85 b6 7f
       -67 -62 -52 111 -76 63 -127 64 7 -48 71 -20 -93 -123 -74 127
0000e0 81 0d 91 a7 be 62 29 66 be 7f 03 63 01 5e 86 14
       -127 13 -111 -89 -66 98 41 102 -66 127 3 99 1 94 -122 20
0000f0 d4 22 01 7f 90 48 c7 78 a9 81 73 81 9a b9 40 19
       -44 34 1 127 -112 72 -57 120 -87 -127 115 -127 -102 -71 64 25

tfl.pseudo_qconst13 i1 [64, 1, 1, 64]
000000 cd db ee d1 e8 df 45 df 7f 1c f4 f8 a9 f6 0c 47
       -51 -37 -18 -47 -24 -33 69 -33 127 28 -12 -8 -87 -10 12 71
000010 f1 29 ff 6b 12 28 e3 4b 16 05 39 d3 09 dc ad 9c
       -15 41 -1 107 18 40 -29 75 22 5 57 -45 9 -36 -83 -100
000020 35 d3 fd fe 29 19 23 f8 ac 08 ef 35 b8 5b f4 3f
       53 -45 -3 -2 41 25 35 -8 -84 8 -17 53 -72 91 -12 63
000030 dd f6 ab c5 8a f3 fb f5 a6 0c 02 58 15 2a 0c d9
       -35 -10 -85 -59 -118 -13 -5 -11 -90 12 2 88 21 42 12 -39
000040 52 3a ee d7 05 0f e7 d0 08 0b 44 eb ea 22 52 28
       82 58 -18 -41 5 15 -25 -48 8 11 68 -21 -22 34 82 40
000050 e7 ee 08 e8 29 f2 c4 b7 f6 d1 9a 2b 31 7f 0d 4e
       -25 -18 8 -24 41 -14 -60 -73 -10 -47 -102 43 49 127 13 78
000060 f4 1c 17 f0 c2 d9 1c 0d ca 14 29 05 4b ee 23 35
       -12 28 23 -16 -62 -39 28 13 -54 20 41 5 75 -18 35 53
000070 ee e5 ee d8 10 cf dc e6 fb cb 2d e0 f5 25 88 23
       -18 -27 -18 -40 16 -49 -36 -26 -5 -53 45 -32 -11 37 -120 35
000080 e0 0d 31 16 24 1a 1a fd 22 28 1d 04 0e 60 ec 57
       -32 13 49 22 36 26 26 -3 34 40 29 4 14 96 -20 87
000090 7f f6 c6 e0 e3 ec 37 ff db 12 22 d7 f6 23 d8 f1
       127 -10 -58 -32 -29 -20 55 -1 -37 18 34 -41 -10 35 -40 -15
0000a0 36 ff ed 19 db 1a ef d3 33 14 10 4b 1d 25 c8 0d
       54 -1 -19 25 -37 26 -17 -45 51 20 16 75 29 37 -56 13
0000b0 d1 02 a7 2c 08 cf 32 d8 0a f5 f8 c0 05 58 bf 0c
       -47 2 -89 44 8 -49 50 -40 10 -11 -8 -64 5 88 -65 12
0000c0 e4 49 06 f1 74 20 1d 00 d9 b4 0c 47 a6 18 27 33
       -28 73 6 -15 116 32 29 0 -39 -76 12 71 -90 24 39 51
0000d0 3e f6 da 3a ee 0d e2 56 d1 d1 44 0f fc 3a ba cb
       62 -10 -38 58 -18 13 -30 86 -47 -47 68 15 -4 58 -70 -53
0000e0 0f d3 f0 f8 3f d9 17 eb 06 e7 d9 0e 3a 59 61 29
       15 -45 -16 -8 63 -39 23 -21 6 -25 -39 14 58 89 97 41
0000f0 cc 35 ed 45 dd ed 08 16 28 81 dd da 0c 1a 57 e8
       -52 53 -19 69 -35 -19 8 22 40 -127 -35 -38 12 26 87 -24

tfl.pseudo_qconst15 i1 [1, 11, 1, 32]
000000 49 81 c5 c7 fe d5 40 1c f8 ba 5e 00 47 40 23 81
       73 -127 -59 -57 -2 -43 64 28 -8 -70 94 0 71 64 35 -127
000010 e6 f9 c8 28 7f 2e 95 69 f8 0c e7 9b 88 b4 d6 02
       -26 -7 -56 40 127 46 -107 105 -8 12 -25 -101 -120 -76 -42 2
000020 39 a0 b6 cd dc 13 13 2a 2b bc f2 db c0 4d df bb
       57 -96 -74 -51 -36 19 19 42 43 -68 -14 -37 -64 77 -33 -69
000030 c9 47 de 68 36 03 9a 1e 33 17 1b f0 33 e1 05 7c
       -55 71 -34 104 54 3 -102 30 51 23 27 -16 51 -31 5 124
000040 7d cb d1 02 eb 1b e8 f4 65 9d e3 1a 81 33 ab 9d
       125 -53 -47 2 -21 27 -24 -12 101 -99 -29 26 -127 51 -85 -99
000050 36 1c 81 4c 33 53 a1 19 19 22 16 b3 4f 21 00 59
       54 28 -127 76 51 83 -95 25 25 34 22 -77 79 33 0 89
000060 5a e6 f4 fa 94 fe c5 e4 2e d2 7c 05 d5 4a ab cb
       90 -26 -12 -6 -108 -2 -59 -28 46 -46 124 5 -43 74 -85 -53
000070 7f d5 9b 63 1e 7f d2 39 29 49 fc b2 79 25 08 08
       127 -43 -101 99 30 127 -46 57 41 73 -4 -78 121 37 8 8
000080 7f d3 28 bd 81 0b 29 18 54 07 3b bd e8 0e bd a8
       127 -45 40 -67 -127 11 41 24 84 7 59 -67 -24 14 -67 -88
000090 f9 be b9 20 14 34 8f 48 e7 53 b4 d1 e9 d2 4c ea
       -7 -66 -71 32 20 52 -113 72 -25 83 -76 -47 -23 -46 76 -22
0000a0 6f bc 7f 9e aa bc 43 55 d6 38 71 aa 4f 17 60 96
       111 -68 127 -98 -86 -68 67 85 -42 56 113 -86 79 23 96 -106
0000b0 bb fb 60 ff 08 f2 81 fe e1 0b 81 e2 a0 89 4d ae
       -69 -5 96 -1 8 -14 -127 -2 -31 11 -127 -30 -96 -119 77 -82
0000c0 5d bc 42 d2 f2 65 42 7f 96 43 11 cf 7f e5 7f ec
       93 -68 66 -46 -14 101 66 127 -106 67 17 -49 127 -27 127 -20
0000d0 bd 20 5d 93 f8 c3 e6 33 cb b9 aa b1 81 9b ed 43
       -67 32 93 -109 -8 -61 -26 51 -53 -71 -86 -79 -127 -101 -19 67
0000e0 16 06 d5 15 55 03 f8 66 e7 81 81 37 77 a9 37 ec
       22 6 -43 21 85 3 -8 102 -25 -127 -127 55 119 -87 55 -20
0000f0 1f 39 57 81 0f b5 3d ec f8 b2 14 af 0d a9 83 07
       31 57 87 -127 15 -75 61 -20 -8 -78 20 -81 13 -87 -125 7

tfl.pseudo_qconst17 i1 [1, 7, 1, 32]
000000 45 be ce 14 57 de 4a 21 fe 0f b4 81 dc 2d 50 1c
       69 -66 -50 20 87 -34 74 33 -2 15 -76 -127 -36 45 80 28
000010 f6 5c 2d b9 2c 2f da 29 f4 66 7b 81 cd 34 ac bb
       -10 92 45 -71 44 47 -38 41 -12 102 123 -127 -51 52 -84 -69
000020 1e 81 af 7f 7f b3 5f 97 2d 95 ea ea 3c 98 ee 81
       30 -127 -81 127 127 -77 95 -105 45 -107 -22 -22 60 -104 -18 -127
000030 e2 7f 31 bb 11 c2 ef 3a 09 28 7f 1c c3 18 62 81
       -30 127 49 -69 17 -62 -17 58 9 40 127 28 -61 24 98 -127
000040 f7 fb de 2d 68 d9 3a 0c b7 8d cf f0 e1 8f dc 9f
       -9 -5 -34 45 104 -39 58 12 -73 -115 -49 -16 -31 -113 -36 -97
000050 02 62 53 1d a6 81 e3 5d f7 cb 61 1c 36 fc 7f d4
       2 98 83 29 -90 -127 -29 93 -9 -53 97 28 54 -4 127 -44
000060 55 6a 44 90 25 08 b4 cd cb 2d da 59 5b 34 38 b0
       85 106 68 -112 37 8 -76 -51 -53 45 -38 89 91 52 56 -80
000070 eb e3 3a 12 1a be fd 54 ff 81 ff 5f 56 ce 09 6d
       -21 -29 58 18 26 -66 -3 84 -1 -127 -1 95 86 -50 9 109
000080 7f 71 36 99 6f 6d 97 56 81 7e 81 5f 7f 7f a3 4f
       127 113 54 -103 111 109 -105 86 -127 126 -127 95 127 127 -93 79
000090 4d df c6 4a 7f 3d 62 d9 f5 82 39 36 ef a5 4c 66
       77 -33 -58 74 127 61 98 -39 -11 -126 57 54 -17 -91 76 102
0000a0 6f 5d 7f ec 4a 7f af 7c 97 7f d3 35 71 2a 8f 45
       111 93 127 -20 74 127 -81 124 -105 127 -45 53 113 42 -113 69
0000b0 7f 8c bb 53 c7 4c 7f b4 ef c6 2a 2d 7f 9f 28 38
       127 -116 -69 83 -57 76 127 -76 -17 -58 42 45 127 -97 40 56
0000c0 f2 fd 5f 25 f7 60 81 7f 8f 77 f5 f6 4d 36 81 66
       -14 -3 95 37 -9 96 -127 127 -113 119 -11 -10 77 54 -127 102
0000d0 71 f7 81 7f c5 0a 7d 81 81 46 5a f9 b1 81 b2 2a
       113 -9 -127 127 -59 10 125 -127 -127 70 90 -7 -79 -127 -78 42

tfl.pseudo_qconst19 i1 [64, 1, 1, 32]
000000 05 e6 47 29 08 31 ff f6 17 03 f0 e8 bb 73 6d f2
       5 -26 71 41 8 49 -1 -10 23 3 -16 -24 -69 115 109 -14
000010 fd 99 96 81 fc 36 25 6d 40 0b 40 f1 10 f3 00 8e
       -3 -103 -106 -127 -4 54 37 109 64 11 64 -15 16 -13 0 -114
000020 ee 1a 8e f8 44 e2 c6 da c5 81 34 2d a9 bf d5 26
       -18 26 -114 -8 68 -30 -58 -38 -59 -127 52 45 -87 -65 -43 38
000030 2d b0 e0 4b 60 d2 e7 fd 17 0f d0 03 43 f6 7a e4
       45 -80 -32 75 96 -46 -25 -3 23 15 -48 3 67 -10 122 -28
000040 6f 5a 2f 43 14 f4 fc 19 c0 9c 4c 23 91 1a 7f 1b
       111 90 47 67 20 -12 -4 25 -64 -100 76 35 -111 26 127 27
000050 5f de fe 0f 59 14 10 7a d7 2d a9 e7 c2 0b 54 41
       95 -34 -2 15 89 20 16 122 -41 45 -87 -25 -62 11 84 65
000060 ed d5 f2 21 ca 29 f1 d5 43 03 ee 2c 28 c9 de d3
       -19 -43 -14 33 -54 41 -15 -43 67 3 -18 44 40 -55 -34 -45
000070 23 07 7f e7 fc 09 fd eb b8 fe 01 3a fd 4f 1a 32
       35 7 127 -25 -4 9 -3 -21 -72 -2 1 58 -3 79 26 50
000080 f1 e6 bc 1c 2e 0f 01 dd 0a e2 c8 09 00 03 27 d7
       -15 -26 -68 28 46 15 1 -35 10 -30 -56 9 0 3 39 -41
000090 f2 f7 26 0d e3 07 eb 42 81 24 17 a3 1e f9 17 2c
       -14 -9 38 13 -29 7 -21 66 -127 36 23 -93 30 -7 23 44
0000a0 31 e4 87 91 d2 da 3e e8 19 02 76 a1 11 ed 10 08
       49 -28 -121 -111 -46 -38 62 -24 25 2 118 -95 17 -19 16 8
0000b0 18 f4 09 2a c1 e2 1f 07 94 46 81 15 38 26 7b b1
       24 -12 9 42 -63 -30 31 7 -108 70 -127 21 56 38 123 -79
0000c0 24 01 10 38 7f 09 e4 b5 a8 ff 07 00 1b f9 ef f1
       36 1 16 56 127 9 -28 -75 -88 -1 7 0 27 -7 -17 -15
0000d0 d1 1b d0 24 0b 25 9c ef c9 35 14 f5 0d e0 11 be
       -47 27 -48 36 11 37 -100 -17 -55 53 20 -11 13 -32 17 -66
0000e0 7f 09 bb 0a da dd c8 f8 67 01 f3 39 4f bc 15 d7
       127 9 -69 10 -38 -35 -56 -8 103 1 -13 57 79 -68 21 -41
0000f0 3a e9 41 dc b3 d7 46 e6 6a 46 ca 21 3f ea 37 12
       58 -23 65 -36 -77 -41 70 -26 106 70 -54 33 63 -22 55 18

tfl.pseudo_qconst21 i1 [1, 5, 1, 32]
000000 61 de fb cc 16 7f 43 43 52 31 1d c6 b9 56 7f 22
       97 -34 -5 -52 22 127 67 67 82 49 29 -58 -71 86 127 34
000010 7f 49 3a 0f c0 81 fa 2f ba 81 ed b2 5e 74 5c 1d
       127 73 58 15 -64 -127 -6 47 -70 -127 -19 -78 94 116 92 29
000020 d7 0e 36 81 7f 25 7f 7f a0 5d 9b eb d1 34 74 b0
       -41 14 54 -127 127 37 127 127 -96 93 -101 -21 -47 52 116 -80
000030 9a 13 10 01 f5 95 81 23 81 c9 8d 1e 17 7f 6f 6c
       -102 19 16 1 -11 -107 -127 35 -127 -55 -115 30 23 127 111 108
000040 81 70 e1 9a 2b 31 6c 42 81 00 52 d0 cc ae 0b 23
       -127 112 -31 -102 43 49 108 66 -127 0 82 -48 -52 -82 11 35
000050 db 1e 81 a5 f5 97 d3 fb 1f 9e 81 e8 7f 2b 07 7f
       -37 30 -127 -91 -11 -105 -45 -5 31 -98 -127 -24 127 43 7 127
000060 e8 79 97 0e 5a 51 b6 10 9f 81 e4 04 81 81 eb 7f
       -24 121 -105 14 90 81 -74 16 -97 -127 -28 4 -127 -127 -21 127
000070 56 1e 3b d2 4c d5 f5 ed 93 b0 86 f6 74 28 7f 7e
       86 30 59 -46 76 -43 -11 -19 -109 -80 -122 -10 116 40 127 126
000080 26 7f 81 54 ef e8 ca ad 24 b3 7f 7f a8 27 99 06
       38 127 -127 84 -17 -24 -54 -83 36 -77 127 127 -88 39 -103 6
000090 7e 7f 40 7f 7f 9e de 81 79 51 99 81 04 fb 71 6c
       126 127 64 127 127 -98 -34 -127 121 81 -103 -127 4 -5 113 108

tfl.pseudo_qconst23 i1 [32, 5, 1, 40]
000000 da ba cd d4 eb fc f2 0c df 08 ee 1e d6 2e 38 0e
       -38 -70 -51 -44 -21 -4 -14 12 -33 8 -18 30 -42 46 56 14
000010 03 ed eb f4 f9 d4 cf f2 01 0a 03 36 1d 04 0f 19
       3 -19 -21 -12 -7 -44 -49 -14 1 10 3 54 29 4 15 25
000020 0e fa 3e 35 60 49 6c 7f 06 e7 cd 09 ff 20 d1 10
       14 -6 62 53 96 73 108 127 6 -25 -51 9 -1 32 -47 16
000030 ed 06 f7 25 1f 2e 2c 01 cb d9 dd 07 12 f9 db fd
       -19 6 -9 37 31 46 44 1 -53 -39 -35 7 18 -7 -37 -3
000040 cc e3 21 15 32 01 20 02 f6 05 49 4a 71 4e 64 5d
       -52 -29 33 21 50 1 32 2 -10 5 73 74 113 78 100 93
000050 03 1e 3b 1c 20 1b fb 25 e6 21 0e 33 22 00 0f 06
       3 30 59 28 32 27 -5 37 -26 33 14 51 34 0 15 6
000060 bd bc d9 f3 fc f2 d5 09 dc 0d 23 34 20 ed f8 1b
       -67 -68 -39 -13 -4 -14 -43 9 -36 13 35 52 32 -19 -8 27
000070 fd de 3f 12 15 ef 37 fa 32 00 23 27 11 f0 f5 f9
       -3 -34 63 18 21 -17 55 -6 50 0 35 39 17 -16 -11 -7
000080 0d 0b fd 27 14 f8 fa d6 b3 c4 e8 d4 f1 f7 0a 18
       13 11 -3 39 20 -8 -6 -42 -77 -60 -24 -44 -15 -9 10 24
000090 f6 0e 1a 07 2a f8 fd ff df e7 fb ec fa b5 e1 cc
       -10 14 26 7 42 -8 -3 -1 -33 -25 -5 -20 -6 -75 -31 -52
0000a0 65 41 34 36 0f 17 03 f5 f7 15 04 2f 14 d1 d3 d3
       101 65 52 54 15 23 3 -11 -9 21 4 47 20 -47 -45 -45
0000b0 b9 bd 06 f5 30 18 f1 0a 09 27 1e 0b f9 06 1a e9
       -71 -67 6 -11 48 24 -15 10 9 39 30 11 -7 6 26 -23
0000c0 eb f9 ef ce df be d6 8b f2 37 ff 1f 0a d7 1e e8
       -21 -7 -17 -50 -33 -66 -42 -117 -14 55 -1 31 10 -41 30 -24
0000d0 14 14 10 0e ea 34 4a 0a df ba 07 b0 85 cb f4 e4
       20 20 16 14 -22 52 74 10 -33 -70 7 -80 -123 -53 -12 -28
0000e0 01 53 0b 22 36 2f 0d ea be a1 c6 21 e2 02 f1 06
       1 83 11 34 54 47 13 -22 -66 -95 -58 33 -30 2 -15 6
0000f0 ce 06 c6 22 0d d7 d5 ba f1 02 e7 ff 38 e9 14 11
       -50 6 -58 34 13 -41 -43 -70 -15 2 -25 -1 56 -23 20 17

tfl.pseudo_qconst24 i1 [1, 22, 1, 64] scale=0.031989355 zero_point=-128
000000 80 80 80 80 80 80 80 80 80 80 80 80 80 80 80 80
       0.0 0.0 0.0 0.0 0.0 0.0 0.0 0.0 0.0 0.0 0.0 0.0 0.0 0.0 0.0 0.0
000010 80 80 80 80 80 80 80 80 80 80 80 80 80 80 80 80
       0.0 0.0 0.0 0.0 0.0 0.0 0.0 0.0 0.0 0.0 0.0 0.0 0.0 0.0 0.0 0.0
000020 80 80 80 80 80 80 80 80 80 80 80 80 80 80 80 80
       0.0 0.0 0.0 0.0 0.0 0.0 0.0 0.0 0.0 0.0 0.0 0.0 0.0 0.0 0.0 0.0
000030 80 80 80 80 80 80 80 80 80 80 80 80 80 80 80 80
       0.0 0.0 0.0 0.0 0.0 0.0 0.0 0.0 0.0 0.0 0.0 0.0 0.0 0.0 0.0 0.0
000040 80 80 80 80 80 80 80 80 80 80 80 80 80 80 80 80
       0.0 0.0 0.0 0.0 0.0 0.0 0.0 0.0 0.0 0.0 0.0 0.0 0.0 0.0 0.0 0.0
000050 80 80 80 80 80 80 80 80 80 80 80 80 80 80 80 80
       0.0 0.0 0.0 0.0 0.0 0.0 0.0 0.0 0.0 0.0 0.0 0.0 0.0 0.0 0.0 0.0
000060 80 80 80 80 80 80 80 80 80 80 80 80 80 80 80 80
       0.0 0.0 0.0 0.0 0.0 0.0 0.0 0.0 0.0 0.0 0.0 0.0 0.0 0.0 0.0 0.0
000070 80 80 80 80 80 80 80 80 80 80 80 80 80 80 80 80
       0.0 0.0 0.0 0.0 0.0 0.0 0.0 0.0 0.0 0.0 0.0 0.0 0.0 0.0 0.0 0.0
000080 80 80 80 80 80 80 80 80 80 80 80 80 80 80 80 80
       0.0 0.0 0.0 0.0 0.0 0.0 0.0 0.0 0.0 0.0 0.0 0.0 0.0 0.0 0.0 0.0
000090 80 80 80 80 80 80 80 80 80 80 80 80 80 80 80 80
       0.0 0.0 0.0 0.0 0.0 0.0 0.0 0.0 0.0 0.0 0.0 0.0 0.0 0.0 0.0 0.0
0000a0 80 80 80 80 80 80 80 80 80 80 80 80 80 80 80 80
       0.0 0.0 0.0 0.0 0.0 0.0 0.0 0.0 0.0 0.0 0.0 0.0 0.0 0.0 0.0 0.0
0000b0 80 80 80 80 80 80 80 80 80 80 80 80 80 80 80 80
       0.0 0.0 0.0 0.0 0.0 0.0 0.0 0.0 0.0 0.0 0.0 0.0 0.0 0.0 0.0 0.0
0000c0 80 80 80 80 80 80 80 80 80 80 80 80 80 80 80 80
       0.0 0.0 0.0 0.0 0.0 0.0 0.0 0.0 0.0 0.0 0.0 0.0 0.0 0.0 0.0 0.0
0000d0 80 80 80 80 80 80 80 80 80 80 80 80 80 80 80 80
       0.0 0.0 0.0 0.0 0.0 0.0 0.0 0.0 0.0 0.0 0.0 0.0 0.0 0.0 0.0 0.0
0000e0 80 80 80 80 80 80 80 80 80 80 80 80 80 80 80 80
       0.0 0.0 0.0 0.0 0.0 0.0 0.0 0.0 0.0 0.0 0.0 0.0 0.0 0.0 0.0 0.0
0000f0 80 80 80 80 80 80 80 80 80 80 80 80 80 80 80 80
       0.0 0.0 0.0 0.0 0.0 0.0 0.0 0.0 0.0 0.0 0.0 0.0 0.0 0.0 0.0 0.0

tfl.pseudo_qconst25 i1 [1, 36, 1, 64] scale=0.021344297 zero_point=-128
000000 80 80 80 80 80 80 80 80 80 80 80 80 80 80 80 80
       0.0 0.0 0.0 0.0 0.0 0.0 0.0 0.0 0.0 0.0 0.0 0.0 0.0 0.0 0.0 0.0
000010 80 80 80 80 80 80 80 80 80 80 80 80 80 80 80 80
       0.0 0.0 0.0 0.0 0.0 0.0 0.0 0.0 0.0 0.0 0.0 0.0 0.0 0.0 0.0 0.0
000020 80 80 80 80 80 80 80 80 80 80 80 80 80 80 80 80
       0.0 0.0 0.0 0.0 0.0 0.0 0.0 0.0 0.0 0.0 0.0 0.0 0.0 0.0 0.0 0.0
000030 80 80 80 80 80 80 80 80 80 80 80 80 80 80 80 80
       0.0 0.0 0.0 0.0 0.0 0.0 0.0 0.0 0.0 0.0 0.0 0.0 0.0 0.0 0.0 0.0
000040 80 80 80 80 80 80 80 80 80 80 80 80 80 80 80 80
       0.0 0.0 0.0 0.0 0.0 0.0 0.0 0.0 0.0 0.0 0.0 0.0 0.0 0.0 0.0 0.0
000050 80 80 80 80 80 80 80 80 80 80 80 80 80 80 80 80
       0.0 0.0 0.0 0.0 0.0 0.0 0.0 0.0 0.0 0.0 0.0 0.0 0.0 0.0 0.0 0.0
000060 80 80 80 80 80 80 80 80 80 80 80 80 80 80 80 80
       0.0 0.0 0.0 0.0 0.0 0.0 0.0 0.0 0.0 0.0 0.0 0.0 0.0 0.0 0.0 0.0
000070 80 80 80 80 80 80 80 80 80 80 80 80 80 80 80 80
       0.0 0.0 0.0 0.0 0.0 0.0 0.0 0.0 0.0 0.0 0.0 0.0 0.0 0.0 0.0 0.0
000080 80 80 80 80 80 80 80 80 80 80 80 80 80 80 80 80
       0.0 0.0 0.0 0.0 0.0 0.0 0.0 0.0 0.0 0.0 0.0 0.0 0.0 0.0 0.0 0.0
000090 80 80 80 80 80 80 80 80 80 80 80 80 80 80 80 80
       0.0 0.0 0.0 0.0 0.0 0.0 0.0 0.0 0.0 0.0 0.0 0.0 0.0 0.0 0.0 0.0
0000a0 80 80 80 80 80 80 80 80 80 80 80 80 80 80 80 80
       0.0 0.0 0.0 0.0 0.0 0.0 0.0 0.0 0.0 0.0 0.0 0.0 0.0 0.0 0.0 0.0
0000b0 80 80 80 80 80 80 80 80 80 80 80 80 80 80 80 80
       0.0 0.0 0.0 0.0 0.0 0.0 0.0 0.0 0.0 0.0 0.0 0.0 0.0 0.0 0.0 0.0
0000c0 80 80 80 80 80 80 80 80 80 80 80 80 80 80 80 80
       0.0 0.0 0.0 0.0 0.0 0.0 0.0 0.0 0.0 0.0 0.0 0.0 0.0 0.0 0.0 0.0
0000d0 80 80 80 80 80 80 80 80 80 80 80 80 80 80 80 80
       0.0 0.0 0.0 0.0 0.0 0.0 0.0 0.0 0.0 0.0 0.0 0.0 0.0 0.0 0.0 0.0
0000e0 80 80 80 80 80 80 80 80 80 80 80 80 80 80 80 80
       0.0 0.0 0.0 0.0 0.0 0.0 0.0 0.0 0.0 0.0 0.0 0.0 0.0 0.0 0.0 0.0
0000f0 80 80 80 80 80 80 80 80 80 80 80 80 80 80 80 80
       0.0 0.0 0.0 0.0 0.0 0.0 0.0 0.0 0.0 0.0 0.0 0.0 0.0 0.0 0.0 0.0

tfl.pseudo_qconst26 i1 [1, 3, 1, 40] scale=0.101960786 zero_point=-128
000000 80 80 80 80 80 80 80 80 80 80 80 80 80 80 80 80
       0.0 0.0 0.0 0.0 0.0 0.0 0.0 0.0 0.0 0.0 0.0 0.0 0.0 0.0 0.0 0.0
000010 80 80 80 80 80 80 80 80 80 80 80 80 80 80 80 80
       0.0 0.0 0.0 0.0 0.0 0.0 0.0 0.0 0.0 0.0 0.0 0.0 0.0 0.0 0.0 0.0
000020 80 80 80 80 80 80 80 80 80 80 80 80 80 80 80 80
       0.0 0.0 0.0 0.0 0.0 0.0 0.0 0.0 0.0 0.0 0.0 0.0 0.0 0.0 0.0 0.0
000030 80 80 80 80 80 80 80 80 80 80 80 80 80 80 80 80
       0.0 0.0 0.0 0.0 0.0 0.0 0.0 0.0 0.0 0.0 0.0 0.0 0.0 0.0 0.0 0.0
000040 80 80 80 80 80 80 80 80 80 80 80 80 80 80 80 80
       0.0 0.0 0.0 0.0 0.0 0.0 0.0 0.0 0.0 0.0 0.0 0.0 0.0 0.0 0.0 0.0
000050 80 80 80 80 80 80 80 80 80 80 80 80 80 80 80 80
       0.0 0.0 0.0 0.0 0.0 0.0 0.0 0.0 0.0 0.0 0.0 0.0 0.0 0.0 0.0 0.0
000060 80 80 80 80 80 80 80 80 80 80 80 80 80 80 80 80
       0.0 0.0 0.0 0.0 0.0 0.0 0.0 0.0 0.0 0.0 0.0 0.0 0.0 0.0 0.0 0.0
000070 80 80 80 80 80 80 80 80
       0.0 0.0 0.0 0.0 0.0 0.0 0.0 0.0

tfl.pseudo_qconst27 i1 [1, 4, 1, 32] scale=1.5222423 zero_point=-128
000000 80 80 80 80 80 80 80 80 80 80 80 80 80 80 80 80
       0.0 0.0 0.0 0.0 0.0 0.0 0.0 0.0 0.0 0.0 0.0 0.0 0.0 0.0 0.0 0.0
000010 80 80 80 80 80 80 80 80 80 80 80 80 80 80 80 80
       0.0 0.0 0.0 0.0 0.0 0.0 0.0 0.0 0.0 0.0 0.0 0.0 0.0 0.0 0.0 0.0
000020 80 80 80 80 80 80 80 80 80 80 80 80 80 80 80 80
       0.0 0.0 0.0 0.0 0.0 0.0 0.0 0.0 0.0 0.0 0.0 0.0 0.0 0.0 0.0 0.0
000030 80 80 80 80 80 80 80 80 80 80 80 80 80 80 80 80
       0.0 0.0 0.0 0.0 0.0 0.0 0.0 0.0 0.0 0.0 0.0 0.0 0.0 0.0 0.0 0.0
000040 80 80 80 80 80 80 80 80 80 80 80 80 80 80 80 80
       0.0 0.0 0.0 0.0 0.0 0.0 0.0 0.0 0.0 0.0 0.0 0.0 0.0 0.0 0.0 0.0
000050 80 80 80 80 80 80 80 80 80 80 80 80 80 80 80 80
       0.0 0.0 0.0 0.0 0.0 0.0 0.0 0.0 0.0 0.0 0.0 0.0 0.0 0.0 0.0 0.0
000060 80 80 80 80 80 80 80 80 80 80 80 80 80 80 80 80
       0.0 0.0 0.0 0.0 0.0 0.0 0.0 0.0 0.0 0.0 0.0 0.0 0.0 0.0 0.0 0.0
000070 80 80 80 80 80 80 80 80 80 80 80 80 80 80 80 80
       0.0 0.0 0.0 0.0 0.0 0.0 0.0 0.0 0.0 0.0 0.0 0.0 0.0 0.0 0.0 0.0

tfl.pseudo_qconst28 i1 [1, 10, 1, 64] scale=0.051518608 zero_point=-128
000000 80 80 80 80 80 80 80 80 80 80 80 80 80 80 80 80
       0.0 0.0 0.0 0.0 0.0 0.0 0.0 0.0 0.0 0.0 0.0 0.0 0.0 0.0 0.0 0.0
000010 80 80 80 80 80 80 80 80 80 80 80 80 80 80 80 80
       0.0 0.0 0.0 0.0 0.0 0.0 0.0 0.0 0.0 0.0 0.0 0.0 0.0 0.0 0.0 0.0
000020 80 80 80 80 80 80 80 80 80 80 80 80 80 80 80 80
       0.0 0.0 0.0 0.0 0.0 0.0 0.0 0.0 0.0 0.0 0.0 0.0 0.0 0.0 0.0 0.0
000030 80 80 80 80 80 80 80 80 80 80 80 80 80 80 80 80
       0.0 0.0 0.0 0.0 0.0 0.0 0.0 0.0 0.0 0.0 0.0 0.0 0.0 0.0 0.0 0.0
000040 80 80 80 80 80 80 80 80 80 80 80 80 80 80 80 80
       0.0 0.0 0.0 0.0 0.0 0.0 0.0 0.0 0.0 0.0 0.0 0.0 0.0 0.0 0.0 0.0
000050 80 80 80 80 80 80 80 80 80 80 80 80 80 80 80 80
       0.0 0.0 0.0 0.0 0.0 0.0 0.0 0.0 0.0 0.0 0.0 0.0 0.0 0.0 0.0 0.0
000060 80 80 80 80 80 80 80 80 80 80 80 80 80 80 80 80
       0.0 0.0 0.0 0.0 0.0 0.0 0.0 0.0 0.0 0.0 0.0 0.0 0.0 0.0 0.0 0.0
000070 80 80 80 80 80 80 80 80 80 80 80 80 80 80 80 80
       0.0 0.0 0.0 0.0 0.0 0.0 0.0 0.0 0.0 0.0 0.0 0.0 0.0 0.0 0.0 0.0
000080 80 80 80 80 80 80 80 80 80 80 80 80 80 80 80 80
       0.0 0.0 0.0 0.0 0.0 0.0 0.0 0.0 0.0 0.0 0.0 0.0 0.0 0.0 0.0 0.0
000090 80 80 80 80 80 80 80 80 80 80 80 80 80 80 80 80
       0.0 0.0 0.0 0.0 0.0 0.0 0.0 0.0 0.0 0.0 0.0 0.0 0.0 0.0 0.0 0.0
0000a0 80 80 80 80 80 80 80 80 80 80 80 80 80 80 80 80
       0.0 0.0 0.0 0.0 0.0 0.0 0.0 0.0 0.0 0.0 0.0 0.0 0.0 0.0 0.0 0.0
0000b0 80 80 80 80 80 80 80 80 80 80 80 80 80 80 80 80
       0.0 0.0 0.0 0.0 0.0 0.0 0.0 0.0 0.0 0.0 0.0 0.0 0.0 0.0 0.0 0.0
0000c0 80 80 80 80 80 80 80 80 80 80 80 80 80 80 80 80
       0.0 0.0 0.0 0.0 0.0 0.0 0.0 0.0 0.0 0.0 0.0 0.0 0.0 0.0 0.0 0.0
0000d0 80 80 80 80 80 80 80 80 80 80 80 80 80 80 80 80
       0.0 0.0 0.0 0.0 0.0 0.0 0.0 0.0 0.0 0.0 0.0 0.0 0.0 0.0 0.0 0.0
0000e0 80 80 80 80 80 80 80 80 80 80 80 80 80 80 80 80
       0.0 0.0 0.0 0.0 0.0 0.0 0.0 0.0 0.0 0.0 0.0 0.0 0.0 0.0 0.0 0.0
0000f0 80 80 80 80 80 80 80 80 80 80 80 80 80 80 80 80
       0.0 0.0 0.0 0.0 0.0 0.0 0.0 0.0 0.0 0.0 0.0 0.0 0.0 0.0 0.0 0.0

tfl.pseudo_qconst29 i1 [1, 14, 1, 64] scale=0.058116496 zero_point=-128
000000 80 80 80 80 80 80 80 80 80 80 80 80 80 80 80 80
       0.0 0.0 0.0 0.0 0.0 0.0 0.0 0.0 0.0 0.0 0.0 0.0 0.0 0.0 0.0 0.0
000010 80 80 80 80 80 80 80 80 80 80 80 80 80 80 80 80
       0.0 0.0 0.0 0.0 0.0 0.0 0.0 0.0 0.0 0.0 0.0 0.0 0.0 0.0 0.0 0.0
000020 80 80 80 80 80 80 80 80 80 80 80 80 80 80 80 80
       0.0 0.0 0.0 0.0 0.0 0.0 0.0 0.0 0.0 0.0 0.0 0.0 0.0 0.0 0.0 0.0
000030 80 80 80 80 80 80 80 80 80 80 80 80 80 80 80 80
       0.0 0.0 0.0 0.0 0.0 0.0 0.0 0.0 0.0 0.0 0.0 0.0 0.0 0.0 0.0 0.0
000040 80 80 80 80 80 80 80 80 80 80 80 80 80 80 80 80
       0.0 0.0 0.0 0.0 0.0 0.0 0.0 0.0 0.0 0.0 0.0 0.0 0.0 0.0 0.0 0.0
000050 80 80 80 80 80 80 80 80 80 80 80 80 80 80 80 80
       0.0 0.0 0.0 0.0 0.0 0.0 0.0 0.0 0.0 0.0 0.0 0.0 0.0 0.0 0.0 0.0
000060 80 80 80 80 80 80 80 80 80 80 80 80 80 80 80 80
       0.0 0.0 0.0 0.0 0.0 0.0 0.0 0.0 0.0 0.0 0.0 0.0 0.0 0.0 0.0 0.0
000070 80 80 80 80 80 80 80 80 80 80 80 80 80 80 80 80
       0.0 0.0 0.0 0.0 0.0 0.0 0.0 0.0 0.0 0.0 0.0 0.0 0.0 0.0 0.0 0.0
000080 80 80 80 80 80 80 80 80 80 80 80 80 80 80 80 80
       0.0 0.0 0.0 0.0 0.0 0.0 0.0 0.0 0.0 0.0 0.0 0.0 0.0 0.0 0.0 0.0
000090 80 80 80 80 80 80 80 80 80 80 80 80 80 80 80 80
       0.0 0.0 0.0 0.0 0.0 0.0 0.0 0.0 0.0 0.0 0.0 0.0 0.0 0.0 0.0 0.0
0000a0 80 80 80 80 80 80 80 80 80 80 80 80 80 80 80 80
       0.0 0.0 0.0 0.0 0.0 0.0 0.0 0.0 0.0 0.0 0.0 0.0 0.0 0.0 0.0 0.0
0000b0 80 80 80 80 80 80 80 80 80 80 80 80 80 80 80 80
       0.0 0.0 0.0 0.0 0.0 0.0 0.0 0.0 0.0 0.0 0.0 0.0 0.0 0.0 0.0 0.0
0000c0 80 80 80 80 80 80 80 80 80 80 80 80 80 80 80 80
       0.0 0.0 0.0 0.0 0.0 0.0 0.0 0.0 0.0 0.0 0.0 0.0 0.0 0.0 0.0 0.0
0000d0 80 80 80 80 80 80 80 80 80 80 80 80 80 80 80 80
       0.0 0.0 0.0 0.0 0.0 0.0 0.0 0.0 0.0 0.0 0.0 0.0 0.0 0.0 0.0 0.0
0000e0 80 80 80 80 80 80 80 80 80 80 80 80 80 80 80 80
       0.0 0.0 0.0 0.0 0.0 0.0 0.0 0.0 0.0 0.0 0.0 0.0 0.0 0.0 0.0 0.0
0000f0 80 80 80 80 80 80 80 80 80 80 80 80 80 80 80 80
       0.0 0.0 0.0 0.0 0.0 0.0 0.0 0.0 0.0 0.0 0.0 0.0 0.0 0.0 0.0 0.0
